The number of parameters is 1.58M
The number of parameters is 1.58M
The number of parameters is 1.58M

Evaluation:
The number of parameters is 1.58M
The number of parameters is 1.58M

Evaluation:
The number of parameters is 1.58M

Evaluation:
The number of parameters is 1.58M

Evaluation:
The number of parameters is 1.58M

Evaluation:
The number of parameters is 1.58M

Evaluation:
DRN(
  (upsample): Upsample(scale_factor=2.0, mode=bicubic)
  (sub_mean): MeanShift(3, 3, kernel_size=(1, 1), stride=(1, 1))
  (head): Conv2d(3, 16, kernel_size=(3, 3), stride=(1, 1), padding=(1, 1))
  (down): ModuleList(
    (0): DownBlock(
      (dual_module): Sequential(
        (0): Sequential(
          (0): Conv2d(16, 16, kernel_size=(3, 3), stride=(2, 2), padding=(1, 1), bias=False)
          (1): LeakyReLU(negative_slope=0.2, inplace=True)
        )
        (1): Conv2d(16, 32, kernel_size=(3, 3), stride=(1, 1), padding=(1, 1), bias=False)
      )
    )
  )
  (up_blocks): ModuleList(
    (0): Sequential(
      (0): RCAB(
        (body): Sequential(
          (0): Conv2d(32, 32, kernel_size=(3, 3), stride=(1, 1), padding=(1, 1))
          (1): ReLU(inplace=True)
          (2): Conv2d(32, 32, kernel_size=(3, 3), stride=(1, 1), padding=(1, 1))
          (3): CALayer(
            (avg_pool): AdaptiveAvgPool2d(output_size=1)
            (conv_du): Sequential(
              (0): Conv2d(32, 2, kernel_size=(1, 1), stride=(1, 1))
              (1): ReLU(inplace=True)
              (2): Conv2d(2, 32, kernel_size=(1, 1), stride=(1, 1))
              (3): Sigmoid()
            )
          )
        )
      )
      (1): RCAB(
        (body): Sequential(
          (0): Conv2d(32, 32, kernel_size=(3, 3), stride=(1, 1), padding=(1, 1))
          (1): ReLU(inplace=True)
          (2): Conv2d(32, 32, kernel_size=(3, 3), stride=(1, 1), padding=(1, 1))
          (3): CALayer(
            (avg_pool): AdaptiveAvgPool2d(output_size=1)
            (conv_du): Sequential(
              (0): Conv2d(32, 2, kernel_size=(1, 1), stride=(1, 1))
              (1): ReLU(inplace=True)
              (2): Conv2d(2, 32, kernel_size=(1, 1), stride=(1, 1))
              (3): Sigmoid()
            )
          )
        )
      )
      (2): RCAB(
        (body): Sequential(
          (0): Conv2d(32, 32, kernel_size=(3, 3), stride=(1, 1), padding=(1, 1))
          (1): ReLU(inplace=True)
          (2): Conv2d(32, 32, kernel_size=(3, 3), stride=(1, 1), padding=(1, 1))
          (3): CALayer(
            (avg_pool): AdaptiveAvgPool2d(output_size=1)
            (conv_du): Sequential(
              (0): Conv2d(32, 2, kernel_size=(1, 1), stride=(1, 1))
              (1): ReLU(inplace=True)
              (2): Conv2d(2, 32, kernel_size=(1, 1), stride=(1, 1))
              (3): Sigmoid()
            )
          )
        )
      )
      (3): RCAB(
        (body): Sequential(
          (0): Conv2d(32, 32, kernel_size=(3, 3), stride=(1, 1), padding=(1, 1))
          (1): ReLU(inplace=True)
          (2): Conv2d(32, 32, kernel_size=(3, 3), stride=(1, 1), padding=(1, 1))
          (3): CALayer(
            (avg_pool): AdaptiveAvgPool2d(output_size=1)
            (conv_du): Sequential(
              (0): Conv2d(32, 2, kernel_size=(1, 1), stride=(1, 1))
              (1): ReLU(inplace=True)
              (2): Conv2d(2, 32, kernel_size=(1, 1), stride=(1, 1))
              (3): Sigmoid()
            )
          )
        )
      )
      (4): RCAB(
        (body): Sequential(
          (0): Conv2d(32, 32, kernel_size=(3, 3), stride=(1, 1), padding=(1, 1))
          (1): ReLU(inplace=True)
          (2): Conv2d(32, 32, kernel_size=(3, 3), stride=(1, 1), padding=(1, 1))
          (3): CALayer(
            (avg_pool): AdaptiveAvgPool2d(output_size=1)
            (conv_du): Sequential(
              (0): Conv2d(32, 2, kernel_size=(1, 1), stride=(1, 1))
              (1): ReLU(inplace=True)
              (2): Conv2d(2, 32, kernel_size=(1, 1), stride=(1, 1))
              (3): Sigmoid()
            )
          )
        )
      )
      (5): RCAB(
        (body): Sequential(
          (0): Conv2d(32, 32, kernel_size=(3, 3), stride=(1, 1), padding=(1, 1))
          (1): ReLU(inplace=True)
          (2): Conv2d(32, 32, kernel_size=(3, 3), stride=(1, 1), padding=(1, 1))
          (3): CALayer(
            (avg_pool): AdaptiveAvgPool2d(output_size=1)
            (conv_du): Sequential(
              (0): Conv2d(32, 2, kernel_size=(1, 1), stride=(1, 1))
              (1): ReLU(inplace=True)
              (2): Conv2d(2, 32, kernel_size=(1, 1), stride=(1, 1))
              (3): Sigmoid()
            )
          )
        )
      )
      (6): RCAB(
        (body): Sequential(
          (0): Conv2d(32, 32, kernel_size=(3, 3), stride=(1, 1), padding=(1, 1))
          (1): ReLU(inplace=True)
          (2): Conv2d(32, 32, kernel_size=(3, 3), stride=(1, 1), padding=(1, 1))
          (3): CALayer(
            (avg_pool): AdaptiveAvgPool2d(output_size=1)
            (conv_du): Sequential(
              (0): Conv2d(32, 2, kernel_size=(1, 1), stride=(1, 1))
              (1): ReLU(inplace=True)
              (2): Conv2d(2, 32, kernel_size=(1, 1), stride=(1, 1))
              (3): Sigmoid()
            )
          )
        )
      )
      (7): RCAB(
        (body): Sequential(
          (0): Conv2d(32, 32, kernel_size=(3, 3), stride=(1, 1), padding=(1, 1))
          (1): ReLU(inplace=True)
          (2): Conv2d(32, 32, kernel_size=(3, 3), stride=(1, 1), padding=(1, 1))
          (3): CALayer(
            (avg_pool): AdaptiveAvgPool2d(output_size=1)
            (conv_du): Sequential(
              (0): Conv2d(32, 2, kernel_size=(1, 1), stride=(1, 1))
              (1): ReLU(inplace=True)
              (2): Conv2d(2, 32, kernel_size=(1, 1), stride=(1, 1))
              (3): Sigmoid()
            )
          )
        )
      )
      (8): RCAB(
        (body): Sequential(
          (0): Conv2d(32, 32, kernel_size=(3, 3), stride=(1, 1), padding=(1, 1))
          (1): ReLU(inplace=True)
          (2): Conv2d(32, 32, kernel_size=(3, 3), stride=(1, 1), padding=(1, 1))
          (3): CALayer(
            (avg_pool): AdaptiveAvgPool2d(output_size=1)
            (conv_du): Sequential(
              (0): Conv2d(32, 2, kernel_size=(1, 1), stride=(1, 1))
              (1): ReLU(inplace=True)
              (2): Conv2d(2, 32, kernel_size=(1, 1), stride=(1, 1))
              (3): Sigmoid()
            )
          )
        )
      )
      (9): RCAB(
        (body): Sequential(
          (0): Conv2d(32, 32, kernel_size=(3, 3), stride=(1, 1), padding=(1, 1))
          (1): ReLU(inplace=True)
          (2): Conv2d(32, 32, kernel_size=(3, 3), stride=(1, 1), padding=(1, 1))
          (3): CALayer(
            (avg_pool): AdaptiveAvgPool2d(output_size=1)
            (conv_du): Sequential(
              (0): Conv2d(32, 2, kernel_size=(1, 1), stride=(1, 1))
              (1): ReLU(inplace=True)
              (2): Conv2d(2, 32, kernel_size=(1, 1), stride=(1, 1))
              (3): Sigmoid()
            )
          )
        )
      )
      (10): RCAB(
        (body): Sequential(
          (0): Conv2d(32, 32, kernel_size=(3, 3), stride=(1, 1), padding=(1, 1))
          (1): ReLU(inplace=True)
          (2): Conv2d(32, 32, kernel_size=(3, 3), stride=(1, 1), padding=(1, 1))
          (3): CALayer(
            (avg_pool): AdaptiveAvgPool2d(output_size=1)
            (conv_du): Sequential(
              (0): Conv2d(32, 2, kernel_size=(1, 1), stride=(1, 1))
              (1): ReLU(inplace=True)
              (2): Conv2d(2, 32, kernel_size=(1, 1), stride=(1, 1))
              (3): Sigmoid()
            )
          )
        )
      )
      (11): RCAB(
        (body): Sequential(
          (0): Conv2d(32, 32, kernel_size=(3, 3), stride=(1, 1), padding=(1, 1))
          (1): ReLU(inplace=True)
          (2): Conv2d(32, 32, kernel_size=(3, 3), stride=(1, 1), padding=(1, 1))
          (3): CALayer(
            (avg_pool): AdaptiveAvgPool2d(output_size=1)
            (conv_du): Sequential(
              (0): Conv2d(32, 2, kernel_size=(1, 1), stride=(1, 1))
              (1): ReLU(inplace=True)
              (2): Conv2d(2, 32, kernel_size=(1, 1), stride=(1, 1))
              (3): Sigmoid()
            )
          )
        )
      )
      (12): RCAB(
        (body): Sequential(
          (0): Conv2d(32, 32, kernel_size=(3, 3), stride=(1, 1), padding=(1, 1))
          (1): ReLU(inplace=True)
          (2): Conv2d(32, 32, kernel_size=(3, 3), stride=(1, 1), padding=(1, 1))
          (3): CALayer(
            (avg_pool): AdaptiveAvgPool2d(output_size=1)
            (conv_du): Sequential(
              (0): Conv2d(32, 2, kernel_size=(1, 1), stride=(1, 1))
              (1): ReLU(inplace=True)
              (2): Conv2d(2, 32, kernel_size=(1, 1), stride=(1, 1))
              (3): Sigmoid()
            )
          )
        )
      )
      (13): RCAB(
        (body): Sequential(
          (0): Conv2d(32, 32, kernel_size=(3, 3), stride=(1, 1), padding=(1, 1))
          (1): ReLU(inplace=True)
          (2): Conv2d(32, 32, kernel_size=(3, 3), stride=(1, 1), padding=(1, 1))
          (3): CALayer(
            (avg_pool): AdaptiveAvgPool2d(output_size=1)
            (conv_du): Sequential(
              (0): Conv2d(32, 2, kernel_size=(1, 1), stride=(1, 1))
              (1): ReLU(inplace=True)
              (2): Conv2d(2, 32, kernel_size=(1, 1), stride=(1, 1))
              (3): Sigmoid()
            )
          )
        )
      )
      (14): RCAB(
        (body): Sequential(
          (0): Conv2d(32, 32, kernel_size=(3, 3), stride=(1, 1), padding=(1, 1))
          (1): ReLU(inplace=True)
          (2): Conv2d(32, 32, kernel_size=(3, 3), stride=(1, 1), padding=(1, 1))
          (3): CALayer(
            (avg_pool): AdaptiveAvgPool2d(output_size=1)
            (conv_du): Sequential(
              (0): Conv2d(32, 2, kernel_size=(1, 1), stride=(1, 1))
              (1): ReLU(inplace=True)
              (2): Conv2d(2, 32, kernel_size=(1, 1), stride=(1, 1))
              (3): Sigmoid()
            )
          )
        )
      )
      (15): RCAB(
        (body): Sequential(
          (0): Conv2d(32, 32, kernel_size=(3, 3), stride=(1, 1), padding=(1, 1))
          (1): ReLU(inplace=True)
          (2): Conv2d(32, 32, kernel_size=(3, 3), stride=(1, 1), padding=(1, 1))
          (3): CALayer(
            (avg_pool): AdaptiveAvgPool2d(output_size=1)
            (conv_du): Sequential(
              (0): Conv2d(32, 2, kernel_size=(1, 1), stride=(1, 1))
              (1): ReLU(inplace=True)
              (2): Conv2d(2, 32, kernel_size=(1, 1), stride=(1, 1))
              (3): Sigmoid()
            )
          )
        )
      )
      (16): RCAB(
        (body): Sequential(
          (0): Conv2d(32, 32, kernel_size=(3, 3), stride=(1, 1), padding=(1, 1))
          (1): ReLU(inplace=True)
          (2): Conv2d(32, 32, kernel_size=(3, 3), stride=(1, 1), padding=(1, 1))
          (3): CALayer(
            (avg_pool): AdaptiveAvgPool2d(output_size=1)
            (conv_du): Sequential(
              (0): Conv2d(32, 2, kernel_size=(1, 1), stride=(1, 1))
              (1): ReLU(inplace=True)
              (2): Conv2d(2, 32, kernel_size=(1, 1), stride=(1, 1))
              (3): Sigmoid()
            )
          )
        )
      )
      (17): RCAB(
        (body): Sequential(
          (0): Conv2d(32, 32, kernel_size=(3, 3), stride=(1, 1), padding=(1, 1))
          (1): ReLU(inplace=True)
          (2): Conv2d(32, 32, kernel_size=(3, 3), stride=(1, 1), padding=(1, 1))
          (3): CALayer(
            (avg_pool): AdaptiveAvgPool2d(output_size=1)
            (conv_du): Sequential(
              (0): Conv2d(32, 2, kernel_size=(1, 1), stride=(1, 1))
              (1): ReLU(inplace=True)
              (2): Conv2d(2, 32, kernel_size=(1, 1), stride=(1, 1))
              (3): Sigmoid()
            )
          )
        )
      )
      (18): RCAB(
        (body): Sequential(
          (0): Conv2d(32, 32, kernel_size=(3, 3), stride=(1, 1), padding=(1, 1))
          (1): ReLU(inplace=True)
          (2): Conv2d(32, 32, kernel_size=(3, 3), stride=(1, 1), padding=(1, 1))
          (3): CALayer(
            (avg_pool): AdaptiveAvgPool2d(output_size=1)
            (conv_du): Sequential(
              (0): Conv2d(32, 2, kernel_size=(1, 1), stride=(1, 1))
              (1): ReLU(inplace=True)
              (2): Conv2d(2, 32, kernel_size=(1, 1), stride=(1, 1))
              (3): Sigmoid()
            )
          )
        )
      )
      (19): RCAB(
        (body): Sequential(
          (0): Conv2d(32, 32, kernel_size=(3, 3), stride=(1, 1), padding=(1, 1))
          (1): ReLU(inplace=True)
          (2): Conv2d(32, 32, kernel_size=(3, 3), stride=(1, 1), padding=(1, 1))
          (3): CALayer(
            (avg_pool): AdaptiveAvgPool2d(output_size=1)
            (conv_du): Sequential(
              (0): Conv2d(32, 2, kernel_size=(1, 1), stride=(1, 1))
              (1): ReLU(inplace=True)
              (2): Conv2d(2, 32, kernel_size=(1, 1), stride=(1, 1))
              (3): Sigmoid()
            )
          )
        )
      )
      (20): RCAB(
        (body): Sequential(
          (0): Conv2d(32, 32, kernel_size=(3, 3), stride=(1, 1), padding=(1, 1))
          (1): ReLU(inplace=True)
          (2): Conv2d(32, 32, kernel_size=(3, 3), stride=(1, 1), padding=(1, 1))
          (3): CALayer(
            (avg_pool): AdaptiveAvgPool2d(output_size=1)
            (conv_du): Sequential(
              (0): Conv2d(32, 2, kernel_size=(1, 1), stride=(1, 1))
              (1): ReLU(inplace=True)
              (2): Conv2d(2, 32, kernel_size=(1, 1), stride=(1, 1))
              (3): Sigmoid()
            )
          )
        )
      )
      (21): RCAB(
        (body): Sequential(
          (0): Conv2d(32, 32, kernel_size=(3, 3), stride=(1, 1), padding=(1, 1))
          (1): ReLU(inplace=True)
          (2): Conv2d(32, 32, kernel_size=(3, 3), stride=(1, 1), padding=(1, 1))
          (3): CALayer(
            (avg_pool): AdaptiveAvgPool2d(output_size=1)
            (conv_du): Sequential(
              (0): Conv2d(32, 2, kernel_size=(1, 1), stride=(1, 1))
              (1): ReLU(inplace=True)
              (2): Conv2d(2, 32, kernel_size=(1, 1), stride=(1, 1))
              (3): Sigmoid()
            )
          )
        )
      )
      (22): RCAB(
        (body): Sequential(
          (0): Conv2d(32, 32, kernel_size=(3, 3), stride=(1, 1), padding=(1, 1))
          (1): ReLU(inplace=True)
          (2): Conv2d(32, 32, kernel_size=(3, 3), stride=(1, 1), padding=(1, 1))
          (3): CALayer(
            (avg_pool): AdaptiveAvgPool2d(output_size=1)
            (conv_du): Sequential(
              (0): Conv2d(32, 2, kernel_size=(1, 1), stride=(1, 1))
              (1): ReLU(inplace=True)
              (2): Conv2d(2, 32, kernel_size=(1, 1), stride=(1, 1))
              (3): Sigmoid()
            )
          )
        )
      )
      (23): RCAB(
        (body): Sequential(
          (0): Conv2d(32, 32, kernel_size=(3, 3), stride=(1, 1), padding=(1, 1))
          (1): ReLU(inplace=True)
          (2): Conv2d(32, 32, kernel_size=(3, 3), stride=(1, 1), padding=(1, 1))
          (3): CALayer(
            (avg_pool): AdaptiveAvgPool2d(output_size=1)
            (conv_du): Sequential(
              (0): Conv2d(32, 2, kernel_size=(1, 1), stride=(1, 1))
              (1): ReLU(inplace=True)
              (2): Conv2d(2, 32, kernel_size=(1, 1), stride=(1, 1))
              (3): Sigmoid()
            )
          )
        )
      )
      (24): RCAB(
        (body): Sequential(
          (0): Conv2d(32, 32, kernel_size=(3, 3), stride=(1, 1), padding=(1, 1))
          (1): ReLU(inplace=True)
          (2): Conv2d(32, 32, kernel_size=(3, 3), stride=(1, 1), padding=(1, 1))
          (3): CALayer(
            (avg_pool): AdaptiveAvgPool2d(output_size=1)
            (conv_du): Sequential(
              (0): Conv2d(32, 2, kernel_size=(1, 1), stride=(1, 1))
              (1): ReLU(inplace=True)
              (2): Conv2d(2, 32, kernel_size=(1, 1), stride=(1, 1))
              (3): Sigmoid()
            )
          )
        )
      )
      (25): RCAB(
        (body): Sequential(
          (0): Conv2d(32, 32, kernel_size=(3, 3), stride=(1, 1), padding=(1, 1))
          (1): ReLU(inplace=True)
          (2): Conv2d(32, 32, kernel_size=(3, 3), stride=(1, 1), padding=(1, 1))
          (3): CALayer(
            (avg_pool): AdaptiveAvgPool2d(output_size=1)
            (conv_du): Sequential(
              (0): Conv2d(32, 2, kernel_size=(1, 1), stride=(1, 1))
              (1): ReLU(inplace=True)
              (2): Conv2d(2, 32, kernel_size=(1, 1), stride=(1, 1))
              (3): Sigmoid()
            )
          )
        )
      )
      (26): RCAB(
        (body): Sequential(
          (0): Conv2d(32, 32, kernel_size=(3, 3), stride=(1, 1), padding=(1, 1))
          (1): ReLU(inplace=True)
          (2): Conv2d(32, 32, kernel_size=(3, 3), stride=(1, 1), padding=(1, 1))
          (3): CALayer(
            (avg_pool): AdaptiveAvgPool2d(output_size=1)
            (conv_du): Sequential(
              (0): Conv2d(32, 2, kernel_size=(1, 1), stride=(1, 1))
              (1): ReLU(inplace=True)
              (2): Conv2d(2, 32, kernel_size=(1, 1), stride=(1, 1))
              (3): Sigmoid()
            )
          )
        )
      )
      (27): RCAB(
        (body): Sequential(
          (0): Conv2d(32, 32, kernel_size=(3, 3), stride=(1, 1), padding=(1, 1))
          (1): ReLU(inplace=True)
          (2): Conv2d(32, 32, kernel_size=(3, 3), stride=(1, 1), padding=(1, 1))
          (3): CALayer(
            (avg_pool): AdaptiveAvgPool2d(output_size=1)
            (conv_du): Sequential(
              (0): Conv2d(32, 2, kernel_size=(1, 1), stride=(1, 1))
              (1): ReLU(inplace=True)
              (2): Conv2d(2, 32, kernel_size=(1, 1), stride=(1, 1))
              (3): Sigmoid()
            )
          )
        )
      )
      (28): RCAB(
        (body): Sequential(
          (0): Conv2d(32, 32, kernel_size=(3, 3), stride=(1, 1), padding=(1, 1))
          (1): ReLU(inplace=True)
          (2): Conv2d(32, 32, kernel_size=(3, 3), stride=(1, 1), padding=(1, 1))
          (3): CALayer(
            (avg_pool): AdaptiveAvgPool2d(output_size=1)
            (conv_du): Sequential(
              (0): Conv2d(32, 2, kernel_size=(1, 1), stride=(1, 1))
              (1): ReLU(inplace=True)
              (2): Conv2d(2, 32, kernel_size=(1, 1), stride=(1, 1))
              (3): Sigmoid()
            )
          )
        )
      )
      (29): RCAB(
        (body): Sequential(
          (0): Conv2d(32, 32, kernel_size=(3, 3), stride=(1, 1), padding=(1, 1))
          (1): ReLU(inplace=True)
          (2): Conv2d(32, 32, kernel_size=(3, 3), stride=(1, 1), padding=(1, 1))
          (3): CALayer(
            (avg_pool): AdaptiveAvgPool2d(output_size=1)
            (conv_du): Sequential(
              (0): Conv2d(32, 2, kernel_size=(1, 1), stride=(1, 1))
              (1): ReLU(inplace=True)
              (2): Conv2d(2, 32, kernel_size=(1, 1), stride=(1, 1))
              (3): Sigmoid()
            )
          )
        )
      )
      (30): RCAB(
        (body): Sequential(
          (0): Conv2d(32, 32, kernel_size=(3, 3), stride=(1, 1), padding=(1, 1))
          (1): ReLU(inplace=True)
          (2): Conv2d(32, 32, kernel_size=(3, 3), stride=(1, 1), padding=(1, 1))
          (3): CALayer(
            (avg_pool): AdaptiveAvgPool2d(output_size=1)
            (conv_du): Sequential(
              (0): Conv2d(32, 2, kernel_size=(1, 1), stride=(1, 1))
              (1): ReLU(inplace=True)
              (2): Conv2d(2, 32, kernel_size=(1, 1), stride=(1, 1))
              (3): Sigmoid()
            )
          )
        )
      )
      (31): RCAB(
        (body): Sequential(
          (0): Conv2d(32, 32, kernel_size=(3, 3), stride=(1, 1), padding=(1, 1))
          (1): ReLU(inplace=True)
          (2): Conv2d(32, 32, kernel_size=(3, 3), stride=(1, 1), padding=(1, 1))
          (3): CALayer(
            (avg_pool): AdaptiveAvgPool2d(output_size=1)
            (conv_du): Sequential(
              (0): Conv2d(32, 2, kernel_size=(1, 1), stride=(1, 1))
              (1): ReLU(inplace=True)
              (2): Conv2d(2, 32, kernel_size=(1, 1), stride=(1, 1))
              (3): Sigmoid()
            )
          )
        )
      )
      (32): RCAB(
        (body): Sequential(
          (0): Conv2d(32, 32, kernel_size=(3, 3), stride=(1, 1), padding=(1, 1))
          (1): ReLU(inplace=True)
          (2): Conv2d(32, 32, kernel_size=(3, 3), stride=(1, 1), padding=(1, 1))
          (3): CALayer(
            (avg_pool): AdaptiveAvgPool2d(output_size=1)
            (conv_du): Sequential(
              (0): Conv2d(32, 2, kernel_size=(1, 1), stride=(1, 1))
              (1): ReLU(inplace=True)
              (2): Conv2d(2, 32, kernel_size=(1, 1), stride=(1, 1))
              (3): Sigmoid()
            )
          )
        )
      )
      (33): RCAB(
        (body): Sequential(
          (0): Conv2d(32, 32, kernel_size=(3, 3), stride=(1, 1), padding=(1, 1))
          (1): ReLU(inplace=True)
          (2): Conv2d(32, 32, kernel_size=(3, 3), stride=(1, 1), padding=(1, 1))
          (3): CALayer(
            (avg_pool): AdaptiveAvgPool2d(output_size=1)
            (conv_du): Sequential(
              (0): Conv2d(32, 2, kernel_size=(1, 1), stride=(1, 1))
              (1): ReLU(inplace=True)
              (2): Conv2d(2, 32, kernel_size=(1, 1), stride=(1, 1))
              (3): Sigmoid()
            )
          )
        )
      )
      (34): RCAB(
        (body): Sequential(
          (0): Conv2d(32, 32, kernel_size=(3, 3), stride=(1, 1), padding=(1, 1))
          (1): ReLU(inplace=True)
          (2): Conv2d(32, 32, kernel_size=(3, 3), stride=(1, 1), padding=(1, 1))
          (3): CALayer(
            (avg_pool): AdaptiveAvgPool2d(output_size=1)
            (conv_du): Sequential(
              (0): Conv2d(32, 2, kernel_size=(1, 1), stride=(1, 1))
              (1): ReLU(inplace=True)
              (2): Conv2d(2, 32, kernel_size=(1, 1), stride=(1, 1))
              (3): Sigmoid()
            )
          )
        )
      )
      (35): RCAB(
        (body): Sequential(
          (0): Conv2d(32, 32, kernel_size=(3, 3), stride=(1, 1), padding=(1, 1))
          (1): ReLU(inplace=True)
          (2): Conv2d(32, 32, kernel_size=(3, 3), stride=(1, 1), padding=(1, 1))
          (3): CALayer(
            (avg_pool): AdaptiveAvgPool2d(output_size=1)
            (conv_du): Sequential(
              (0): Conv2d(32, 2, kernel_size=(1, 1), stride=(1, 1))
              (1): ReLU(inplace=True)
              (2): Conv2d(2, 32, kernel_size=(1, 1), stride=(1, 1))
              (3): Sigmoid()
            )
          )
        )
      )
      (36): RCAB(
        (body): Sequential(
          (0): Conv2d(32, 32, kernel_size=(3, 3), stride=(1, 1), padding=(1, 1))
          (1): ReLU(inplace=True)
          (2): Conv2d(32, 32, kernel_size=(3, 3), stride=(1, 1), padding=(1, 1))
          (3): CALayer(
            (avg_pool): AdaptiveAvgPool2d(output_size=1)
            (conv_du): Sequential(
              (0): Conv2d(32, 2, kernel_size=(1, 1), stride=(1, 1))
              (1): ReLU(inplace=True)
              (2): Conv2d(2, 32, kernel_size=(1, 1), stride=(1, 1))
              (3): Sigmoid()
            )
          )
        )
      )
      (37): RCAB(
        (body): Sequential(
          (0): Conv2d(32, 32, kernel_size=(3, 3), stride=(1, 1), padding=(1, 1))
          (1): ReLU(inplace=True)
          (2): Conv2d(32, 32, kernel_size=(3, 3), stride=(1, 1), padding=(1, 1))
          (3): CALayer(
            (avg_pool): AdaptiveAvgPool2d(output_size=1)
            (conv_du): Sequential(
              (0): Conv2d(32, 2, kernel_size=(1, 1), stride=(1, 1))
              (1): ReLU(inplace=True)
              (2): Conv2d(2, 32, kernel_size=(1, 1), stride=(1, 1))
              (3): Sigmoid()
            )
          )
        )
      )
      (38): RCAB(
        (body): Sequential(
          (0): Conv2d(32, 32, kernel_size=(3, 3), stride=(1, 1), padding=(1, 1))
          (1): ReLU(inplace=True)
          (2): Conv2d(32, 32, kernel_size=(3, 3), stride=(1, 1), padding=(1, 1))
          (3): CALayer(
            (avg_pool): AdaptiveAvgPool2d(output_size=1)
            (conv_du): Sequential(
              (0): Conv2d(32, 2, kernel_size=(1, 1), stride=(1, 1))
              (1): ReLU(inplace=True)
              (2): Conv2d(2, 32, kernel_size=(1, 1), stride=(1, 1))
              (3): Sigmoid()
            )
          )
        )
      )
      (39): RCAB(
        (body): Sequential(
          (0): Conv2d(32, 32, kernel_size=(3, 3), stride=(1, 1), padding=(1, 1))
          (1): ReLU(inplace=True)
          (2): Conv2d(32, 32, kernel_size=(3, 3), stride=(1, 1), padding=(1, 1))
          (3): CALayer(
            (avg_pool): AdaptiveAvgPool2d(output_size=1)
            (conv_du): Sequential(
              (0): Conv2d(32, 2, kernel_size=(1, 1), stride=(1, 1))
              (1): ReLU(inplace=True)
              (2): Conv2d(2, 32, kernel_size=(1, 1), stride=(1, 1))
              (3): Sigmoid()
            )
          )
        )
      )
      (40): Upsampler(
        (0): Conv2d(32, 128, kernel_size=(3, 3), stride=(1, 1), padding=(1, 1))
        (1): PixelShuffle(upscale_factor=2)
      )
      (41): Conv2d(32, 16, kernel_size=(1, 1), stride=(1, 1))
    )
  )
  (tail): ModuleList(
    (0): Conv2d(32, 3, kernel_size=(3, 3), stride=(1, 1), padding=(1, 1))
    (1): Conv2d(32, 3, kernel_size=(3, 3), stride=(1, 1), padding=(1, 1))
  )
  (add_mean): MeanShift(3, 3, kernel_size=(1, 1), stride=(1, 1))
)
[DownBlock(
  (dual_module): Sequential(
    (0): Sequential(
      (0): Conv2d(3, 16, kernel_size=(3, 3), stride=(2, 2), padding=(1, 1), bias=False)
      (1): LeakyReLU(negative_slope=0.2, inplace=True)
    )
    (1): Conv2d(16, 3, kernel_size=(3, 3), stride=(1, 1), padding=(1, 1), bias=False)
  )
)]
The number of parameters is 0.79M
[Epoch 1]	Learning rate: 1.00e-4
DRN(
  (upsample): Upsample(scale_factor=2.0, mode=bicubic)
  (sub_mean): MeanShift(3, 3, kernel_size=(1, 1), stride=(1, 1))
  (head): Conv2d(3, 16, kernel_size=(3, 3), stride=(1, 1), padding=(1, 1))
  (down): ModuleList(
    (0): DownBlock(
      (dual_module): Sequential(
        (0): Sequential(
          (0): Conv2d(16, 16, kernel_size=(3, 3), stride=(2, 2), padding=(1, 1), bias=False)
          (1): LeakyReLU(negative_slope=0.2, inplace=True)
        )
        (1): Conv2d(16, 32, kernel_size=(3, 3), stride=(1, 1), padding=(1, 1), bias=False)
      )
    )
  )
  (up_blocks): ModuleList(
    (0): Sequential(
      (0): RCAB(
        (body): Sequential(
          (0): Conv2d(32, 32, kernel_size=(3, 3), stride=(1, 1), padding=(1, 1))
          (1): ReLU(inplace=True)
          (2): Conv2d(32, 32, kernel_size=(3, 3), stride=(1, 1), padding=(1, 1))
          (3): CALayer(
            (avg_pool): AdaptiveAvgPool2d(output_size=1)
            (conv_du): Sequential(
              (0): Conv2d(32, 2, kernel_size=(1, 1), stride=(1, 1))
              (1): ReLU(inplace=True)
              (2): Conv2d(2, 32, kernel_size=(1, 1), stride=(1, 1))
              (3): Sigmoid()
            )
          )
        )
      )
      (1): RCAB(
        (body): Sequential(
          (0): Conv2d(32, 32, kernel_size=(3, 3), stride=(1, 1), padding=(1, 1))
          (1): ReLU(inplace=True)
          (2): Conv2d(32, 32, kernel_size=(3, 3), stride=(1, 1), padding=(1, 1))
          (3): CALayer(
            (avg_pool): AdaptiveAvgPool2d(output_size=1)
            (conv_du): Sequential(
              (0): Conv2d(32, 2, kernel_size=(1, 1), stride=(1, 1))
              (1): ReLU(inplace=True)
              (2): Conv2d(2, 32, kernel_size=(1, 1), stride=(1, 1))
              (3): Sigmoid()
            )
          )
        )
      )
      (2): RCAB(
        (body): Sequential(
          (0): Conv2d(32, 32, kernel_size=(3, 3), stride=(1, 1), padding=(1, 1))
          (1): ReLU(inplace=True)
          (2): Conv2d(32, 32, kernel_size=(3, 3), stride=(1, 1), padding=(1, 1))
          (3): CALayer(
            (avg_pool): AdaptiveAvgPool2d(output_size=1)
            (conv_du): Sequential(
              (0): Conv2d(32, 2, kernel_size=(1, 1), stride=(1, 1))
              (1): ReLU(inplace=True)
              (2): Conv2d(2, 32, kernel_size=(1, 1), stride=(1, 1))
              (3): Sigmoid()
            )
          )
        )
      )
      (3): RCAB(
        (body): Sequential(
          (0): Conv2d(32, 32, kernel_size=(3, 3), stride=(1, 1), padding=(1, 1))
          (1): ReLU(inplace=True)
          (2): Conv2d(32, 32, kernel_size=(3, 3), stride=(1, 1), padding=(1, 1))
          (3): CALayer(
            (avg_pool): AdaptiveAvgPool2d(output_size=1)
            (conv_du): Sequential(
              (0): Conv2d(32, 2, kernel_size=(1, 1), stride=(1, 1))
              (1): ReLU(inplace=True)
              (2): Conv2d(2, 32, kernel_size=(1, 1), stride=(1, 1))
              (3): Sigmoid()
            )
          )
        )
      )
      (4): RCAB(
        (body): Sequential(
          (0): Conv2d(32, 32, kernel_size=(3, 3), stride=(1, 1), padding=(1, 1))
          (1): ReLU(inplace=True)
          (2): Conv2d(32, 32, kernel_size=(3, 3), stride=(1, 1), padding=(1, 1))
          (3): CALayer(
            (avg_pool): AdaptiveAvgPool2d(output_size=1)
            (conv_du): Sequential(
              (0): Conv2d(32, 2, kernel_size=(1, 1), stride=(1, 1))
              (1): ReLU(inplace=True)
              (2): Conv2d(2, 32, kernel_size=(1, 1), stride=(1, 1))
              (3): Sigmoid()
            )
          )
        )
      )
      (5): RCAB(
        (body): Sequential(
          (0): Conv2d(32, 32, kernel_size=(3, 3), stride=(1, 1), padding=(1, 1))
          (1): ReLU(inplace=True)
          (2): Conv2d(32, 32, kernel_size=(3, 3), stride=(1, 1), padding=(1, 1))
          (3): CALayer(
            (avg_pool): AdaptiveAvgPool2d(output_size=1)
            (conv_du): Sequential(
              (0): Conv2d(32, 2, kernel_size=(1, 1), stride=(1, 1))
              (1): ReLU(inplace=True)
              (2): Conv2d(2, 32, kernel_size=(1, 1), stride=(1, 1))
              (3): Sigmoid()
            )
          )
        )
      )
      (6): RCAB(
        (body): Sequential(
          (0): Conv2d(32, 32, kernel_size=(3, 3), stride=(1, 1), padding=(1, 1))
          (1): ReLU(inplace=True)
          (2): Conv2d(32, 32, kernel_size=(3, 3), stride=(1, 1), padding=(1, 1))
          (3): CALayer(
            (avg_pool): AdaptiveAvgPool2d(output_size=1)
            (conv_du): Sequential(
              (0): Conv2d(32, 2, kernel_size=(1, 1), stride=(1, 1))
              (1): ReLU(inplace=True)
              (2): Conv2d(2, 32, kernel_size=(1, 1), stride=(1, 1))
              (3): Sigmoid()
            )
          )
        )
      )
      (7): RCAB(
        (body): Sequential(
          (0): Conv2d(32, 32, kernel_size=(3, 3), stride=(1, 1), padding=(1, 1))
          (1): ReLU(inplace=True)
          (2): Conv2d(32, 32, kernel_size=(3, 3), stride=(1, 1), padding=(1, 1))
          (3): CALayer(
            (avg_pool): AdaptiveAvgPool2d(output_size=1)
            (conv_du): Sequential(
              (0): Conv2d(32, 2, kernel_size=(1, 1), stride=(1, 1))
              (1): ReLU(inplace=True)
              (2): Conv2d(2, 32, kernel_size=(1, 1), stride=(1, 1))
              (3): Sigmoid()
            )
          )
        )
      )
      (8): RCAB(
        (body): Sequential(
          (0): Conv2d(32, 32, kernel_size=(3, 3), stride=(1, 1), padding=(1, 1))
          (1): ReLU(inplace=True)
          (2): Conv2d(32, 32, kernel_size=(3, 3), stride=(1, 1), padding=(1, 1))
          (3): CALayer(
            (avg_pool): AdaptiveAvgPool2d(output_size=1)
            (conv_du): Sequential(
              (0): Conv2d(32, 2, kernel_size=(1, 1), stride=(1, 1))
              (1): ReLU(inplace=True)
              (2): Conv2d(2, 32, kernel_size=(1, 1), stride=(1, 1))
              (3): Sigmoid()
            )
          )
        )
      )
      (9): RCAB(
        (body): Sequential(
          (0): Conv2d(32, 32, kernel_size=(3, 3), stride=(1, 1), padding=(1, 1))
          (1): ReLU(inplace=True)
          (2): Conv2d(32, 32, kernel_size=(3, 3), stride=(1, 1), padding=(1, 1))
          (3): CALayer(
            (avg_pool): AdaptiveAvgPool2d(output_size=1)
            (conv_du): Sequential(
              (0): Conv2d(32, 2, kernel_size=(1, 1), stride=(1, 1))
              (1): ReLU(inplace=True)
              (2): Conv2d(2, 32, kernel_size=(1, 1), stride=(1, 1))
              (3): Sigmoid()
            )
          )
        )
      )
      (10): RCAB(
        (body): Sequential(
          (0): Conv2d(32, 32, kernel_size=(3, 3), stride=(1, 1), padding=(1, 1))
          (1): ReLU(inplace=True)
          (2): Conv2d(32, 32, kernel_size=(3, 3), stride=(1, 1), padding=(1, 1))
          (3): CALayer(
            (avg_pool): AdaptiveAvgPool2d(output_size=1)
            (conv_du): Sequential(
              (0): Conv2d(32, 2, kernel_size=(1, 1), stride=(1, 1))
              (1): ReLU(inplace=True)
              (2): Conv2d(2, 32, kernel_size=(1, 1), stride=(1, 1))
              (3): Sigmoid()
            )
          )
        )
      )
      (11): RCAB(
        (body): Sequential(
          (0): Conv2d(32, 32, kernel_size=(3, 3), stride=(1, 1), padding=(1, 1))
          (1): ReLU(inplace=True)
          (2): Conv2d(32, 32, kernel_size=(3, 3), stride=(1, 1), padding=(1, 1))
          (3): CALayer(
            (avg_pool): AdaptiveAvgPool2d(output_size=1)
            (conv_du): Sequential(
              (0): Conv2d(32, 2, kernel_size=(1, 1), stride=(1, 1))
              (1): ReLU(inplace=True)
              (2): Conv2d(2, 32, kernel_size=(1, 1), stride=(1, 1))
              (3): Sigmoid()
            )
          )
        )
      )
      (12): RCAB(
        (body): Sequential(
          (0): Conv2d(32, 32, kernel_size=(3, 3), stride=(1, 1), padding=(1, 1))
          (1): ReLU(inplace=True)
          (2): Conv2d(32, 32, kernel_size=(3, 3), stride=(1, 1), padding=(1, 1))
          (3): CALayer(
            (avg_pool): AdaptiveAvgPool2d(output_size=1)
            (conv_du): Sequential(
              (0): Conv2d(32, 2, kernel_size=(1, 1), stride=(1, 1))
              (1): ReLU(inplace=True)
              (2): Conv2d(2, 32, kernel_size=(1, 1), stride=(1, 1))
              (3): Sigmoid()
            )
          )
        )
      )
      (13): RCAB(
        (body): Sequential(
          (0): Conv2d(32, 32, kernel_size=(3, 3), stride=(1, 1), padding=(1, 1))
          (1): ReLU(inplace=True)
          (2): Conv2d(32, 32, kernel_size=(3, 3), stride=(1, 1), padding=(1, 1))
          (3): CALayer(
            (avg_pool): AdaptiveAvgPool2d(output_size=1)
            (conv_du): Sequential(
              (0): Conv2d(32, 2, kernel_size=(1, 1), stride=(1, 1))
              (1): ReLU(inplace=True)
              (2): Conv2d(2, 32, kernel_size=(1, 1), stride=(1, 1))
              (3): Sigmoid()
            )
          )
        )
      )
      (14): RCAB(
        (body): Sequential(
          (0): Conv2d(32, 32, kernel_size=(3, 3), stride=(1, 1), padding=(1, 1))
          (1): ReLU(inplace=True)
          (2): Conv2d(32, 32, kernel_size=(3, 3), stride=(1, 1), padding=(1, 1))
          (3): CALayer(
            (avg_pool): AdaptiveAvgPool2d(output_size=1)
            (conv_du): Sequential(
              (0): Conv2d(32, 2, kernel_size=(1, 1), stride=(1, 1))
              (1): ReLU(inplace=True)
              (2): Conv2d(2, 32, kernel_size=(1, 1), stride=(1, 1))
              (3): Sigmoid()
            )
          )
        )
      )
      (15): RCAB(
        (body): Sequential(
          (0): Conv2d(32, 32, kernel_size=(3, 3), stride=(1, 1), padding=(1, 1))
          (1): ReLU(inplace=True)
          (2): Conv2d(32, 32, kernel_size=(3, 3), stride=(1, 1), padding=(1, 1))
          (3): CALayer(
            (avg_pool): AdaptiveAvgPool2d(output_size=1)
            (conv_du): Sequential(
              (0): Conv2d(32, 2, kernel_size=(1, 1), stride=(1, 1))
              (1): ReLU(inplace=True)
              (2): Conv2d(2, 32, kernel_size=(1, 1), stride=(1, 1))
              (3): Sigmoid()
            )
          )
        )
      )
      (16): RCAB(
        (body): Sequential(
          (0): Conv2d(32, 32, kernel_size=(3, 3), stride=(1, 1), padding=(1, 1))
          (1): ReLU(inplace=True)
          (2): Conv2d(32, 32, kernel_size=(3, 3), stride=(1, 1), padding=(1, 1))
          (3): CALayer(
            (avg_pool): AdaptiveAvgPool2d(output_size=1)
            (conv_du): Sequential(
              (0): Conv2d(32, 2, kernel_size=(1, 1), stride=(1, 1))
              (1): ReLU(inplace=True)
              (2): Conv2d(2, 32, kernel_size=(1, 1), stride=(1, 1))
              (3): Sigmoid()
            )
          )
        )
      )
      (17): RCAB(
        (body): Sequential(
          (0): Conv2d(32, 32, kernel_size=(3, 3), stride=(1, 1), padding=(1, 1))
          (1): ReLU(inplace=True)
          (2): Conv2d(32, 32, kernel_size=(3, 3), stride=(1, 1), padding=(1, 1))
          (3): CALayer(
            (avg_pool): AdaptiveAvgPool2d(output_size=1)
            (conv_du): Sequential(
              (0): Conv2d(32, 2, kernel_size=(1, 1), stride=(1, 1))
              (1): ReLU(inplace=True)
              (2): Conv2d(2, 32, kernel_size=(1, 1), stride=(1, 1))
              (3): Sigmoid()
            )
          )
        )
      )
      (18): RCAB(
        (body): Sequential(
          (0): Conv2d(32, 32, kernel_size=(3, 3), stride=(1, 1), padding=(1, 1))
          (1): ReLU(inplace=True)
          (2): Conv2d(32, 32, kernel_size=(3, 3), stride=(1, 1), padding=(1, 1))
          (3): CALayer(
            (avg_pool): AdaptiveAvgPool2d(output_size=1)
            (conv_du): Sequential(
              (0): Conv2d(32, 2, kernel_size=(1, 1), stride=(1, 1))
              (1): ReLU(inplace=True)
              (2): Conv2d(2, 32, kernel_size=(1, 1), stride=(1, 1))
              (3): Sigmoid()
            )
          )
        )
      )
      (19): RCAB(
        (body): Sequential(
          (0): Conv2d(32, 32, kernel_size=(3, 3), stride=(1, 1), padding=(1, 1))
          (1): ReLU(inplace=True)
          (2): Conv2d(32, 32, kernel_size=(3, 3), stride=(1, 1), padding=(1, 1))
          (3): CALayer(
            (avg_pool): AdaptiveAvgPool2d(output_size=1)
            (conv_du): Sequential(
              (0): Conv2d(32, 2, kernel_size=(1, 1), stride=(1, 1))
              (1): ReLU(inplace=True)
              (2): Conv2d(2, 32, kernel_size=(1, 1), stride=(1, 1))
              (3): Sigmoid()
            )
          )
        )
      )
      (20): RCAB(
        (body): Sequential(
          (0): Conv2d(32, 32, kernel_size=(3, 3), stride=(1, 1), padding=(1, 1))
          (1): ReLU(inplace=True)
          (2): Conv2d(32, 32, kernel_size=(3, 3), stride=(1, 1), padding=(1, 1))
          (3): CALayer(
            (avg_pool): AdaptiveAvgPool2d(output_size=1)
            (conv_du): Sequential(
              (0): Conv2d(32, 2, kernel_size=(1, 1), stride=(1, 1))
              (1): ReLU(inplace=True)
              (2): Conv2d(2, 32, kernel_size=(1, 1), stride=(1, 1))
              (3): Sigmoid()
            )
          )
        )
      )
      (21): RCAB(
        (body): Sequential(
          (0): Conv2d(32, 32, kernel_size=(3, 3), stride=(1, 1), padding=(1, 1))
          (1): ReLU(inplace=True)
          (2): Conv2d(32, 32, kernel_size=(3, 3), stride=(1, 1), padding=(1, 1))
          (3): CALayer(
            (avg_pool): AdaptiveAvgPool2d(output_size=1)
            (conv_du): Sequential(
              (0): Conv2d(32, 2, kernel_size=(1, 1), stride=(1, 1))
              (1): ReLU(inplace=True)
              (2): Conv2d(2, 32, kernel_size=(1, 1), stride=(1, 1))
              (3): Sigmoid()
            )
          )
        )
      )
      (22): RCAB(
        (body): Sequential(
          (0): Conv2d(32, 32, kernel_size=(3, 3), stride=(1, 1), padding=(1, 1))
          (1): ReLU(inplace=True)
          (2): Conv2d(32, 32, kernel_size=(3, 3), stride=(1, 1), padding=(1, 1))
          (3): CALayer(
            (avg_pool): AdaptiveAvgPool2d(output_size=1)
            (conv_du): Sequential(
              (0): Conv2d(32, 2, kernel_size=(1, 1), stride=(1, 1))
              (1): ReLU(inplace=True)
              (2): Conv2d(2, 32, kernel_size=(1, 1), stride=(1, 1))
              (3): Sigmoid()
            )
          )
        )
      )
      (23): RCAB(
        (body): Sequential(
          (0): Conv2d(32, 32, kernel_size=(3, 3), stride=(1, 1), padding=(1, 1))
          (1): ReLU(inplace=True)
          (2): Conv2d(32, 32, kernel_size=(3, 3), stride=(1, 1), padding=(1, 1))
          (3): CALayer(
            (avg_pool): AdaptiveAvgPool2d(output_size=1)
            (conv_du): Sequential(
              (0): Conv2d(32, 2, kernel_size=(1, 1), stride=(1, 1))
              (1): ReLU(inplace=True)
              (2): Conv2d(2, 32, kernel_size=(1, 1), stride=(1, 1))
              (3): Sigmoid()
            )
          )
        )
      )
      (24): RCAB(
        (body): Sequential(
          (0): Conv2d(32, 32, kernel_size=(3, 3), stride=(1, 1), padding=(1, 1))
          (1): ReLU(inplace=True)
          (2): Conv2d(32, 32, kernel_size=(3, 3), stride=(1, 1), padding=(1, 1))
          (3): CALayer(
            (avg_pool): AdaptiveAvgPool2d(output_size=1)
            (conv_du): Sequential(
              (0): Conv2d(32, 2, kernel_size=(1, 1), stride=(1, 1))
              (1): ReLU(inplace=True)
              (2): Conv2d(2, 32, kernel_size=(1, 1), stride=(1, 1))
              (3): Sigmoid()
            )
          )
        )
      )
      (25): RCAB(
        (body): Sequential(
          (0): Conv2d(32, 32, kernel_size=(3, 3), stride=(1, 1), padding=(1, 1))
          (1): ReLU(inplace=True)
          (2): Conv2d(32, 32, kernel_size=(3, 3), stride=(1, 1), padding=(1, 1))
          (3): CALayer(
            (avg_pool): AdaptiveAvgPool2d(output_size=1)
            (conv_du): Sequential(
              (0): Conv2d(32, 2, kernel_size=(1, 1), stride=(1, 1))
              (1): ReLU(inplace=True)
              (2): Conv2d(2, 32, kernel_size=(1, 1), stride=(1, 1))
              (3): Sigmoid()
            )
          )
        )
      )
      (26): RCAB(
        (body): Sequential(
          (0): Conv2d(32, 32, kernel_size=(3, 3), stride=(1, 1), padding=(1, 1))
          (1): ReLU(inplace=True)
          (2): Conv2d(32, 32, kernel_size=(3, 3), stride=(1, 1), padding=(1, 1))
          (3): CALayer(
            (avg_pool): AdaptiveAvgPool2d(output_size=1)
            (conv_du): Sequential(
              (0): Conv2d(32, 2, kernel_size=(1, 1), stride=(1, 1))
              (1): ReLU(inplace=True)
              (2): Conv2d(2, 32, kernel_size=(1, 1), stride=(1, 1))
              (3): Sigmoid()
            )
          )
        )
      )
      (27): RCAB(
        (body): Sequential(
          (0): Conv2d(32, 32, kernel_size=(3, 3), stride=(1, 1), padding=(1, 1))
          (1): ReLU(inplace=True)
          (2): Conv2d(32, 32, kernel_size=(3, 3), stride=(1, 1), padding=(1, 1))
          (3): CALayer(
            (avg_pool): AdaptiveAvgPool2d(output_size=1)
            (conv_du): Sequential(
              (0): Conv2d(32, 2, kernel_size=(1, 1), stride=(1, 1))
              (1): ReLU(inplace=True)
              (2): Conv2d(2, 32, kernel_size=(1, 1), stride=(1, 1))
              (3): Sigmoid()
            )
          )
        )
      )
      (28): RCAB(
        (body): Sequential(
          (0): Conv2d(32, 32, kernel_size=(3, 3), stride=(1, 1), padding=(1, 1))
          (1): ReLU(inplace=True)
          (2): Conv2d(32, 32, kernel_size=(3, 3), stride=(1, 1), padding=(1, 1))
          (3): CALayer(
            (avg_pool): AdaptiveAvgPool2d(output_size=1)
            (conv_du): Sequential(
              (0): Conv2d(32, 2, kernel_size=(1, 1), stride=(1, 1))
              (1): ReLU(inplace=True)
              (2): Conv2d(2, 32, kernel_size=(1, 1), stride=(1, 1))
              (3): Sigmoid()
            )
          )
        )
      )
      (29): RCAB(
        (body): Sequential(
          (0): Conv2d(32, 32, kernel_size=(3, 3), stride=(1, 1), padding=(1, 1))
          (1): ReLU(inplace=True)
          (2): Conv2d(32, 32, kernel_size=(3, 3), stride=(1, 1), padding=(1, 1))
          (3): CALayer(
            (avg_pool): AdaptiveAvgPool2d(output_size=1)
            (conv_du): Sequential(
              (0): Conv2d(32, 2, kernel_size=(1, 1), stride=(1, 1))
              (1): ReLU(inplace=True)
              (2): Conv2d(2, 32, kernel_size=(1, 1), stride=(1, 1))
              (3): Sigmoid()
            )
          )
        )
      )
      (30): RCAB(
        (body): Sequential(
          (0): Conv2d(32, 32, kernel_size=(3, 3), stride=(1, 1), padding=(1, 1))
          (1): ReLU(inplace=True)
          (2): Conv2d(32, 32, kernel_size=(3, 3), stride=(1, 1), padding=(1, 1))
          (3): CALayer(
            (avg_pool): AdaptiveAvgPool2d(output_size=1)
            (conv_du): Sequential(
              (0): Conv2d(32, 2, kernel_size=(1, 1), stride=(1, 1))
              (1): ReLU(inplace=True)
              (2): Conv2d(2, 32, kernel_size=(1, 1), stride=(1, 1))
              (3): Sigmoid()
            )
          )
        )
      )
      (31): RCAB(
        (body): Sequential(
          (0): Conv2d(32, 32, kernel_size=(3, 3), stride=(1, 1), padding=(1, 1))
          (1): ReLU(inplace=True)
          (2): Conv2d(32, 32, kernel_size=(3, 3), stride=(1, 1), padding=(1, 1))
          (3): CALayer(
            (avg_pool): AdaptiveAvgPool2d(output_size=1)
            (conv_du): Sequential(
              (0): Conv2d(32, 2, kernel_size=(1, 1), stride=(1, 1))
              (1): ReLU(inplace=True)
              (2): Conv2d(2, 32, kernel_size=(1, 1), stride=(1, 1))
              (3): Sigmoid()
            )
          )
        )
      )
      (32): RCAB(
        (body): Sequential(
          (0): Conv2d(32, 32, kernel_size=(3, 3), stride=(1, 1), padding=(1, 1))
          (1): ReLU(inplace=True)
          (2): Conv2d(32, 32, kernel_size=(3, 3), stride=(1, 1), padding=(1, 1))
          (3): CALayer(
            (avg_pool): AdaptiveAvgPool2d(output_size=1)
            (conv_du): Sequential(
              (0): Conv2d(32, 2, kernel_size=(1, 1), stride=(1, 1))
              (1): ReLU(inplace=True)
              (2): Conv2d(2, 32, kernel_size=(1, 1), stride=(1, 1))
              (3): Sigmoid()
            )
          )
        )
      )
      (33): RCAB(
        (body): Sequential(
          (0): Conv2d(32, 32, kernel_size=(3, 3), stride=(1, 1), padding=(1, 1))
          (1): ReLU(inplace=True)
          (2): Conv2d(32, 32, kernel_size=(3, 3), stride=(1, 1), padding=(1, 1))
          (3): CALayer(
            (avg_pool): AdaptiveAvgPool2d(output_size=1)
            (conv_du): Sequential(
              (0): Conv2d(32, 2, kernel_size=(1, 1), stride=(1, 1))
              (1): ReLU(inplace=True)
              (2): Conv2d(2, 32, kernel_size=(1, 1), stride=(1, 1))
              (3): Sigmoid()
            )
          )
        )
      )
      (34): RCAB(
        (body): Sequential(
          (0): Conv2d(32, 32, kernel_size=(3, 3), stride=(1, 1), padding=(1, 1))
          (1): ReLU(inplace=True)
          (2): Conv2d(32, 32, kernel_size=(3, 3), stride=(1, 1), padding=(1, 1))
          (3): CALayer(
            (avg_pool): AdaptiveAvgPool2d(output_size=1)
            (conv_du): Sequential(
              (0): Conv2d(32, 2, kernel_size=(1, 1), stride=(1, 1))
              (1): ReLU(inplace=True)
              (2): Conv2d(2, 32, kernel_size=(1, 1), stride=(1, 1))
              (3): Sigmoid()
            )
          )
        )
      )
      (35): RCAB(
        (body): Sequential(
          (0): Conv2d(32, 32, kernel_size=(3, 3), stride=(1, 1), padding=(1, 1))
          (1): ReLU(inplace=True)
          (2): Conv2d(32, 32, kernel_size=(3, 3), stride=(1, 1), padding=(1, 1))
          (3): CALayer(
            (avg_pool): AdaptiveAvgPool2d(output_size=1)
            (conv_du): Sequential(
              (0): Conv2d(32, 2, kernel_size=(1, 1), stride=(1, 1))
              (1): ReLU(inplace=True)
              (2): Conv2d(2, 32, kernel_size=(1, 1), stride=(1, 1))
              (3): Sigmoid()
            )
          )
        )
      )
      (36): RCAB(
        (body): Sequential(
          (0): Conv2d(32, 32, kernel_size=(3, 3), stride=(1, 1), padding=(1, 1))
          (1): ReLU(inplace=True)
          (2): Conv2d(32, 32, kernel_size=(3, 3), stride=(1, 1), padding=(1, 1))
          (3): CALayer(
            (avg_pool): AdaptiveAvgPool2d(output_size=1)
            (conv_du): Sequential(
              (0): Conv2d(32, 2, kernel_size=(1, 1), stride=(1, 1))
              (1): ReLU(inplace=True)
              (2): Conv2d(2, 32, kernel_size=(1, 1), stride=(1, 1))
              (3): Sigmoid()
            )
          )
        )
      )
      (37): RCAB(
        (body): Sequential(
          (0): Conv2d(32, 32, kernel_size=(3, 3), stride=(1, 1), padding=(1, 1))
          (1): ReLU(inplace=True)
          (2): Conv2d(32, 32, kernel_size=(3, 3), stride=(1, 1), padding=(1, 1))
          (3): CALayer(
            (avg_pool): AdaptiveAvgPool2d(output_size=1)
            (conv_du): Sequential(
              (0): Conv2d(32, 2, kernel_size=(1, 1), stride=(1, 1))
              (1): ReLU(inplace=True)
              (2): Conv2d(2, 32, kernel_size=(1, 1), stride=(1, 1))
              (3): Sigmoid()
            )
          )
        )
      )
      (38): RCAB(
        (body): Sequential(
          (0): Conv2d(32, 32, kernel_size=(3, 3), stride=(1, 1), padding=(1, 1))
          (1): ReLU(inplace=True)
          (2): Conv2d(32, 32, kernel_size=(3, 3), stride=(1, 1), padding=(1, 1))
          (3): CALayer(
            (avg_pool): AdaptiveAvgPool2d(output_size=1)
            (conv_du): Sequential(
              (0): Conv2d(32, 2, kernel_size=(1, 1), stride=(1, 1))
              (1): ReLU(inplace=True)
              (2): Conv2d(2, 32, kernel_size=(1, 1), stride=(1, 1))
              (3): Sigmoid()
            )
          )
        )
      )
      (39): RCAB(
        (body): Sequential(
          (0): Conv2d(32, 32, kernel_size=(3, 3), stride=(1, 1), padding=(1, 1))
          (1): ReLU(inplace=True)
          (2): Conv2d(32, 32, kernel_size=(3, 3), stride=(1, 1), padding=(1, 1))
          (3): CALayer(
            (avg_pool): AdaptiveAvgPool2d(output_size=1)
            (conv_du): Sequential(
              (0): Conv2d(32, 2, kernel_size=(1, 1), stride=(1, 1))
              (1): ReLU(inplace=True)
              (2): Conv2d(2, 32, kernel_size=(1, 1), stride=(1, 1))
              (3): Sigmoid()
            )
          )
        )
      )
      (40): Upsampler(
        (0): Conv2d(32, 128, kernel_size=(3, 3), stride=(1, 1), padding=(1, 1))
        (1): PixelShuffle(upscale_factor=2)
      )
      (41): Conv2d(32, 16, kernel_size=(1, 1), stride=(1, 1))
    )
  )
  (tail): ModuleList(
    (0): Conv2d(32, 3, kernel_size=(3, 3), stride=(1, 1), padding=(1, 1))
    (1): Conv2d(32, 3, kernel_size=(3, 3), stride=(1, 1), padding=(1, 1))
  )
  (add_mean): MeanShift(3, 3, kernel_size=(1, 1), stride=(1, 1))
)
[DownBlock(
  (dual_module): Sequential(
    (0): Sequential(
      (0): Conv2d(3, 16, kernel_size=(3, 3), stride=(2, 2), padding=(1, 1), bias=False)
      (1): LeakyReLU(negative_slope=0.2, inplace=True)
    )
    (1): Conv2d(16, 3, kernel_size=(3, 3), stride=(1, 1), padding=(1, 1), bias=False)
  )
)]
The number of parameters is 0.79M
[Epoch 1]	Learning rate: 1.00e-4
DRN(
  (upsample): Upsample(scale_factor=2.0, mode=bicubic)
  (sub_mean): MeanShift(3, 3, kernel_size=(1, 1), stride=(1, 1))
  (head): Conv2d(3, 16, kernel_size=(3, 3), stride=(1, 1), padding=(1, 1))
  (down): ModuleList(
    (0): DownBlock(
      (dual_module): Sequential(
        (0): Sequential(
          (0): Conv2d(16, 16, kernel_size=(3, 3), stride=(2, 2), padding=(1, 1), bias=False)
          (1): LeakyReLU(negative_slope=0.2, inplace=True)
        )
        (1): Conv2d(16, 32, kernel_size=(3, 3), stride=(1, 1), padding=(1, 1), bias=False)
      )
    )
  )
  (up_blocks): ModuleList(
    (0): Sequential(
      (0): RCAB(
        (body): Sequential(
          (0): Conv2d(32, 32, kernel_size=(3, 3), stride=(1, 1), padding=(1, 1))
          (1): ReLU(inplace=True)
          (2): Conv2d(32, 32, kernel_size=(3, 3), stride=(1, 1), padding=(1, 1))
          (3): CALayer(
            (avg_pool): AdaptiveAvgPool2d(output_size=1)
            (conv_du): Sequential(
              (0): Conv2d(32, 2, kernel_size=(1, 1), stride=(1, 1))
              (1): ReLU(inplace=True)
              (2): Conv2d(2, 32, kernel_size=(1, 1), stride=(1, 1))
              (3): Sigmoid()
            )
          )
        )
      )
      (1): RCAB(
        (body): Sequential(
          (0): Conv2d(32, 32, kernel_size=(3, 3), stride=(1, 1), padding=(1, 1))
          (1): ReLU(inplace=True)
          (2): Conv2d(32, 32, kernel_size=(3, 3), stride=(1, 1), padding=(1, 1))
          (3): CALayer(
            (avg_pool): AdaptiveAvgPool2d(output_size=1)
            (conv_du): Sequential(
              (0): Conv2d(32, 2, kernel_size=(1, 1), stride=(1, 1))
              (1): ReLU(inplace=True)
              (2): Conv2d(2, 32, kernel_size=(1, 1), stride=(1, 1))
              (3): Sigmoid()
            )
          )
        )
      )
      (2): RCAB(
        (body): Sequential(
          (0): Conv2d(32, 32, kernel_size=(3, 3), stride=(1, 1), padding=(1, 1))
          (1): ReLU(inplace=True)
          (2): Conv2d(32, 32, kernel_size=(3, 3), stride=(1, 1), padding=(1, 1))
          (3): CALayer(
            (avg_pool): AdaptiveAvgPool2d(output_size=1)
            (conv_du): Sequential(
              (0): Conv2d(32, 2, kernel_size=(1, 1), stride=(1, 1))
              (1): ReLU(inplace=True)
              (2): Conv2d(2, 32, kernel_size=(1, 1), stride=(1, 1))
              (3): Sigmoid()
            )
          )
        )
      )
      (3): RCAB(
        (body): Sequential(
          (0): Conv2d(32, 32, kernel_size=(3, 3), stride=(1, 1), padding=(1, 1))
          (1): ReLU(inplace=True)
          (2): Conv2d(32, 32, kernel_size=(3, 3), stride=(1, 1), padding=(1, 1))
          (3): CALayer(
            (avg_pool): AdaptiveAvgPool2d(output_size=1)
            (conv_du): Sequential(
              (0): Conv2d(32, 2, kernel_size=(1, 1), stride=(1, 1))
              (1): ReLU(inplace=True)
              (2): Conv2d(2, 32, kernel_size=(1, 1), stride=(1, 1))
              (3): Sigmoid()
            )
          )
        )
      )
      (4): RCAB(
        (body): Sequential(
          (0): Conv2d(32, 32, kernel_size=(3, 3), stride=(1, 1), padding=(1, 1))
          (1): ReLU(inplace=True)
          (2): Conv2d(32, 32, kernel_size=(3, 3), stride=(1, 1), padding=(1, 1))
          (3): CALayer(
            (avg_pool): AdaptiveAvgPool2d(output_size=1)
            (conv_du): Sequential(
              (0): Conv2d(32, 2, kernel_size=(1, 1), stride=(1, 1))
              (1): ReLU(inplace=True)
              (2): Conv2d(2, 32, kernel_size=(1, 1), stride=(1, 1))
              (3): Sigmoid()
            )
          )
        )
      )
      (5): RCAB(
        (body): Sequential(
          (0): Conv2d(32, 32, kernel_size=(3, 3), stride=(1, 1), padding=(1, 1))
          (1): ReLU(inplace=True)
          (2): Conv2d(32, 32, kernel_size=(3, 3), stride=(1, 1), padding=(1, 1))
          (3): CALayer(
            (avg_pool): AdaptiveAvgPool2d(output_size=1)
            (conv_du): Sequential(
              (0): Conv2d(32, 2, kernel_size=(1, 1), stride=(1, 1))
              (1): ReLU(inplace=True)
              (2): Conv2d(2, 32, kernel_size=(1, 1), stride=(1, 1))
              (3): Sigmoid()
            )
          )
        )
      )
      (6): RCAB(
        (body): Sequential(
          (0): Conv2d(32, 32, kernel_size=(3, 3), stride=(1, 1), padding=(1, 1))
          (1): ReLU(inplace=True)
          (2): Conv2d(32, 32, kernel_size=(3, 3), stride=(1, 1), padding=(1, 1))
          (3): CALayer(
            (avg_pool): AdaptiveAvgPool2d(output_size=1)
            (conv_du): Sequential(
              (0): Conv2d(32, 2, kernel_size=(1, 1), stride=(1, 1))
              (1): ReLU(inplace=True)
              (2): Conv2d(2, 32, kernel_size=(1, 1), stride=(1, 1))
              (3): Sigmoid()
            )
          )
        )
      )
      (7): RCAB(
        (body): Sequential(
          (0): Conv2d(32, 32, kernel_size=(3, 3), stride=(1, 1), padding=(1, 1))
          (1): ReLU(inplace=True)
          (2): Conv2d(32, 32, kernel_size=(3, 3), stride=(1, 1), padding=(1, 1))
          (3): CALayer(
            (avg_pool): AdaptiveAvgPool2d(output_size=1)
            (conv_du): Sequential(
              (0): Conv2d(32, 2, kernel_size=(1, 1), stride=(1, 1))
              (1): ReLU(inplace=True)
              (2): Conv2d(2, 32, kernel_size=(1, 1), stride=(1, 1))
              (3): Sigmoid()
            )
          )
        )
      )
      (8): RCAB(
        (body): Sequential(
          (0): Conv2d(32, 32, kernel_size=(3, 3), stride=(1, 1), padding=(1, 1))
          (1): ReLU(inplace=True)
          (2): Conv2d(32, 32, kernel_size=(3, 3), stride=(1, 1), padding=(1, 1))
          (3): CALayer(
            (avg_pool): AdaptiveAvgPool2d(output_size=1)
            (conv_du): Sequential(
              (0): Conv2d(32, 2, kernel_size=(1, 1), stride=(1, 1))
              (1): ReLU(inplace=True)
              (2): Conv2d(2, 32, kernel_size=(1, 1), stride=(1, 1))
              (3): Sigmoid()
            )
          )
        )
      )
      (9): RCAB(
        (body): Sequential(
          (0): Conv2d(32, 32, kernel_size=(3, 3), stride=(1, 1), padding=(1, 1))
          (1): ReLU(inplace=True)
          (2): Conv2d(32, 32, kernel_size=(3, 3), stride=(1, 1), padding=(1, 1))
          (3): CALayer(
            (avg_pool): AdaptiveAvgPool2d(output_size=1)
            (conv_du): Sequential(
              (0): Conv2d(32, 2, kernel_size=(1, 1), stride=(1, 1))
              (1): ReLU(inplace=True)
              (2): Conv2d(2, 32, kernel_size=(1, 1), stride=(1, 1))
              (3): Sigmoid()
            )
          )
        )
      )
      (10): RCAB(
        (body): Sequential(
          (0): Conv2d(32, 32, kernel_size=(3, 3), stride=(1, 1), padding=(1, 1))
          (1): ReLU(inplace=True)
          (2): Conv2d(32, 32, kernel_size=(3, 3), stride=(1, 1), padding=(1, 1))
          (3): CALayer(
            (avg_pool): AdaptiveAvgPool2d(output_size=1)
            (conv_du): Sequential(
              (0): Conv2d(32, 2, kernel_size=(1, 1), stride=(1, 1))
              (1): ReLU(inplace=True)
              (2): Conv2d(2, 32, kernel_size=(1, 1), stride=(1, 1))
              (3): Sigmoid()
            )
          )
        )
      )
      (11): RCAB(
        (body): Sequential(
          (0): Conv2d(32, 32, kernel_size=(3, 3), stride=(1, 1), padding=(1, 1))
          (1): ReLU(inplace=True)
          (2): Conv2d(32, 32, kernel_size=(3, 3), stride=(1, 1), padding=(1, 1))
          (3): CALayer(
            (avg_pool): AdaptiveAvgPool2d(output_size=1)
            (conv_du): Sequential(
              (0): Conv2d(32, 2, kernel_size=(1, 1), stride=(1, 1))
              (1): ReLU(inplace=True)
              (2): Conv2d(2, 32, kernel_size=(1, 1), stride=(1, 1))
              (3): Sigmoid()
            )
          )
        )
      )
      (12): RCAB(
        (body): Sequential(
          (0): Conv2d(32, 32, kernel_size=(3, 3), stride=(1, 1), padding=(1, 1))
          (1): ReLU(inplace=True)
          (2): Conv2d(32, 32, kernel_size=(3, 3), stride=(1, 1), padding=(1, 1))
          (3): CALayer(
            (avg_pool): AdaptiveAvgPool2d(output_size=1)
            (conv_du): Sequential(
              (0): Conv2d(32, 2, kernel_size=(1, 1), stride=(1, 1))
              (1): ReLU(inplace=True)
              (2): Conv2d(2, 32, kernel_size=(1, 1), stride=(1, 1))
              (3): Sigmoid()
            )
          )
        )
      )
      (13): RCAB(
        (body): Sequential(
          (0): Conv2d(32, 32, kernel_size=(3, 3), stride=(1, 1), padding=(1, 1))
          (1): ReLU(inplace=True)
          (2): Conv2d(32, 32, kernel_size=(3, 3), stride=(1, 1), padding=(1, 1))
          (3): CALayer(
            (avg_pool): AdaptiveAvgPool2d(output_size=1)
            (conv_du): Sequential(
              (0): Conv2d(32, 2, kernel_size=(1, 1), stride=(1, 1))
              (1): ReLU(inplace=True)
              (2): Conv2d(2, 32, kernel_size=(1, 1), stride=(1, 1))
              (3): Sigmoid()
            )
          )
        )
      )
      (14): RCAB(
        (body): Sequential(
          (0): Conv2d(32, 32, kernel_size=(3, 3), stride=(1, 1), padding=(1, 1))
          (1): ReLU(inplace=True)
          (2): Conv2d(32, 32, kernel_size=(3, 3), stride=(1, 1), padding=(1, 1))
          (3): CALayer(
            (avg_pool): AdaptiveAvgPool2d(output_size=1)
            (conv_du): Sequential(
              (0): Conv2d(32, 2, kernel_size=(1, 1), stride=(1, 1))
              (1): ReLU(inplace=True)
              (2): Conv2d(2, 32, kernel_size=(1, 1), stride=(1, 1))
              (3): Sigmoid()
            )
          )
        )
      )
      (15): RCAB(
        (body): Sequential(
          (0): Conv2d(32, 32, kernel_size=(3, 3), stride=(1, 1), padding=(1, 1))
          (1): ReLU(inplace=True)
          (2): Conv2d(32, 32, kernel_size=(3, 3), stride=(1, 1), padding=(1, 1))
          (3): CALayer(
            (avg_pool): AdaptiveAvgPool2d(output_size=1)
            (conv_du): Sequential(
              (0): Conv2d(32, 2, kernel_size=(1, 1), stride=(1, 1))
              (1): ReLU(inplace=True)
              (2): Conv2d(2, 32, kernel_size=(1, 1), stride=(1, 1))
              (3): Sigmoid()
            )
          )
        )
      )
      (16): RCAB(
        (body): Sequential(
          (0): Conv2d(32, 32, kernel_size=(3, 3), stride=(1, 1), padding=(1, 1))
          (1): ReLU(inplace=True)
          (2): Conv2d(32, 32, kernel_size=(3, 3), stride=(1, 1), padding=(1, 1))
          (3): CALayer(
            (avg_pool): AdaptiveAvgPool2d(output_size=1)
            (conv_du): Sequential(
              (0): Conv2d(32, 2, kernel_size=(1, 1), stride=(1, 1))
              (1): ReLU(inplace=True)
              (2): Conv2d(2, 32, kernel_size=(1, 1), stride=(1, 1))
              (3): Sigmoid()
            )
          )
        )
      )
      (17): RCAB(
        (body): Sequential(
          (0): Conv2d(32, 32, kernel_size=(3, 3), stride=(1, 1), padding=(1, 1))
          (1): ReLU(inplace=True)
          (2): Conv2d(32, 32, kernel_size=(3, 3), stride=(1, 1), padding=(1, 1))
          (3): CALayer(
            (avg_pool): AdaptiveAvgPool2d(output_size=1)
            (conv_du): Sequential(
              (0): Conv2d(32, 2, kernel_size=(1, 1), stride=(1, 1))
              (1): ReLU(inplace=True)
              (2): Conv2d(2, 32, kernel_size=(1, 1), stride=(1, 1))
              (3): Sigmoid()
            )
          )
        )
      )
      (18): RCAB(
        (body): Sequential(
          (0): Conv2d(32, 32, kernel_size=(3, 3), stride=(1, 1), padding=(1, 1))
          (1): ReLU(inplace=True)
          (2): Conv2d(32, 32, kernel_size=(3, 3), stride=(1, 1), padding=(1, 1))
          (3): CALayer(
            (avg_pool): AdaptiveAvgPool2d(output_size=1)
            (conv_du): Sequential(
              (0): Conv2d(32, 2, kernel_size=(1, 1), stride=(1, 1))
              (1): ReLU(inplace=True)
              (2): Conv2d(2, 32, kernel_size=(1, 1), stride=(1, 1))
              (3): Sigmoid()
            )
          )
        )
      )
      (19): RCAB(
        (body): Sequential(
          (0): Conv2d(32, 32, kernel_size=(3, 3), stride=(1, 1), padding=(1, 1))
          (1): ReLU(inplace=True)
          (2): Conv2d(32, 32, kernel_size=(3, 3), stride=(1, 1), padding=(1, 1))
          (3): CALayer(
            (avg_pool): AdaptiveAvgPool2d(output_size=1)
            (conv_du): Sequential(
              (0): Conv2d(32, 2, kernel_size=(1, 1), stride=(1, 1))
              (1): ReLU(inplace=True)
              (2): Conv2d(2, 32, kernel_size=(1, 1), stride=(1, 1))
              (3): Sigmoid()
            )
          )
        )
      )
      (20): RCAB(
        (body): Sequential(
          (0): Conv2d(32, 32, kernel_size=(3, 3), stride=(1, 1), padding=(1, 1))
          (1): ReLU(inplace=True)
          (2): Conv2d(32, 32, kernel_size=(3, 3), stride=(1, 1), padding=(1, 1))
          (3): CALayer(
            (avg_pool): AdaptiveAvgPool2d(output_size=1)
            (conv_du): Sequential(
              (0): Conv2d(32, 2, kernel_size=(1, 1), stride=(1, 1))
              (1): ReLU(inplace=True)
              (2): Conv2d(2, 32, kernel_size=(1, 1), stride=(1, 1))
              (3): Sigmoid()
            )
          )
        )
      )
      (21): RCAB(
        (body): Sequential(
          (0): Conv2d(32, 32, kernel_size=(3, 3), stride=(1, 1), padding=(1, 1))
          (1): ReLU(inplace=True)
          (2): Conv2d(32, 32, kernel_size=(3, 3), stride=(1, 1), padding=(1, 1))
          (3): CALayer(
            (avg_pool): AdaptiveAvgPool2d(output_size=1)
            (conv_du): Sequential(
              (0): Conv2d(32, 2, kernel_size=(1, 1), stride=(1, 1))
              (1): ReLU(inplace=True)
              (2): Conv2d(2, 32, kernel_size=(1, 1), stride=(1, 1))
              (3): Sigmoid()
            )
          )
        )
      )
      (22): RCAB(
        (body): Sequential(
          (0): Conv2d(32, 32, kernel_size=(3, 3), stride=(1, 1), padding=(1, 1))
          (1): ReLU(inplace=True)
          (2): Conv2d(32, 32, kernel_size=(3, 3), stride=(1, 1), padding=(1, 1))
          (3): CALayer(
            (avg_pool): AdaptiveAvgPool2d(output_size=1)
            (conv_du): Sequential(
              (0): Conv2d(32, 2, kernel_size=(1, 1), stride=(1, 1))
              (1): ReLU(inplace=True)
              (2): Conv2d(2, 32, kernel_size=(1, 1), stride=(1, 1))
              (3): Sigmoid()
            )
          )
        )
      )
      (23): RCAB(
        (body): Sequential(
          (0): Conv2d(32, 32, kernel_size=(3, 3), stride=(1, 1), padding=(1, 1))
          (1): ReLU(inplace=True)
          (2): Conv2d(32, 32, kernel_size=(3, 3), stride=(1, 1), padding=(1, 1))
          (3): CALayer(
            (avg_pool): AdaptiveAvgPool2d(output_size=1)
            (conv_du): Sequential(
              (0): Conv2d(32, 2, kernel_size=(1, 1), stride=(1, 1))
              (1): ReLU(inplace=True)
              (2): Conv2d(2, 32, kernel_size=(1, 1), stride=(1, 1))
              (3): Sigmoid()
            )
          )
        )
      )
      (24): RCAB(
        (body): Sequential(
          (0): Conv2d(32, 32, kernel_size=(3, 3), stride=(1, 1), padding=(1, 1))
          (1): ReLU(inplace=True)
          (2): Conv2d(32, 32, kernel_size=(3, 3), stride=(1, 1), padding=(1, 1))
          (3): CALayer(
            (avg_pool): AdaptiveAvgPool2d(output_size=1)
            (conv_du): Sequential(
              (0): Conv2d(32, 2, kernel_size=(1, 1), stride=(1, 1))
              (1): ReLU(inplace=True)
              (2): Conv2d(2, 32, kernel_size=(1, 1), stride=(1, 1))
              (3): Sigmoid()
            )
          )
        )
      )
      (25): RCAB(
        (body): Sequential(
          (0): Conv2d(32, 32, kernel_size=(3, 3), stride=(1, 1), padding=(1, 1))
          (1): ReLU(inplace=True)
          (2): Conv2d(32, 32, kernel_size=(3, 3), stride=(1, 1), padding=(1, 1))
          (3): CALayer(
            (avg_pool): AdaptiveAvgPool2d(output_size=1)
            (conv_du): Sequential(
              (0): Conv2d(32, 2, kernel_size=(1, 1), stride=(1, 1))
              (1): ReLU(inplace=True)
              (2): Conv2d(2, 32, kernel_size=(1, 1), stride=(1, 1))
              (3): Sigmoid()
            )
          )
        )
      )
      (26): RCAB(
        (body): Sequential(
          (0): Conv2d(32, 32, kernel_size=(3, 3), stride=(1, 1), padding=(1, 1))
          (1): ReLU(inplace=True)
          (2): Conv2d(32, 32, kernel_size=(3, 3), stride=(1, 1), padding=(1, 1))
          (3): CALayer(
            (avg_pool): AdaptiveAvgPool2d(output_size=1)
            (conv_du): Sequential(
              (0): Conv2d(32, 2, kernel_size=(1, 1), stride=(1, 1))
              (1): ReLU(inplace=True)
              (2): Conv2d(2, 32, kernel_size=(1, 1), stride=(1, 1))
              (3): Sigmoid()
            )
          )
        )
      )
      (27): RCAB(
        (body): Sequential(
          (0): Conv2d(32, 32, kernel_size=(3, 3), stride=(1, 1), padding=(1, 1))
          (1): ReLU(inplace=True)
          (2): Conv2d(32, 32, kernel_size=(3, 3), stride=(1, 1), padding=(1, 1))
          (3): CALayer(
            (avg_pool): AdaptiveAvgPool2d(output_size=1)
            (conv_du): Sequential(
              (0): Conv2d(32, 2, kernel_size=(1, 1), stride=(1, 1))
              (1): ReLU(inplace=True)
              (2): Conv2d(2, 32, kernel_size=(1, 1), stride=(1, 1))
              (3): Sigmoid()
            )
          )
        )
      )
      (28): RCAB(
        (body): Sequential(
          (0): Conv2d(32, 32, kernel_size=(3, 3), stride=(1, 1), padding=(1, 1))
          (1): ReLU(inplace=True)
          (2): Conv2d(32, 32, kernel_size=(3, 3), stride=(1, 1), padding=(1, 1))
          (3): CALayer(
            (avg_pool): AdaptiveAvgPool2d(output_size=1)
            (conv_du): Sequential(
              (0): Conv2d(32, 2, kernel_size=(1, 1), stride=(1, 1))
              (1): ReLU(inplace=True)
              (2): Conv2d(2, 32, kernel_size=(1, 1), stride=(1, 1))
              (3): Sigmoid()
            )
          )
        )
      )
      (29): RCAB(
        (body): Sequential(
          (0): Conv2d(32, 32, kernel_size=(3, 3), stride=(1, 1), padding=(1, 1))
          (1): ReLU(inplace=True)
          (2): Conv2d(32, 32, kernel_size=(3, 3), stride=(1, 1), padding=(1, 1))
          (3): CALayer(
            (avg_pool): AdaptiveAvgPool2d(output_size=1)
            (conv_du): Sequential(
              (0): Conv2d(32, 2, kernel_size=(1, 1), stride=(1, 1))
              (1): ReLU(inplace=True)
              (2): Conv2d(2, 32, kernel_size=(1, 1), stride=(1, 1))
              (3): Sigmoid()
            )
          )
        )
      )
      (30): RCAB(
        (body): Sequential(
          (0): Conv2d(32, 32, kernel_size=(3, 3), stride=(1, 1), padding=(1, 1))
          (1): ReLU(inplace=True)
          (2): Conv2d(32, 32, kernel_size=(3, 3), stride=(1, 1), padding=(1, 1))
          (3): CALayer(
            (avg_pool): AdaptiveAvgPool2d(output_size=1)
            (conv_du): Sequential(
              (0): Conv2d(32, 2, kernel_size=(1, 1), stride=(1, 1))
              (1): ReLU(inplace=True)
              (2): Conv2d(2, 32, kernel_size=(1, 1), stride=(1, 1))
              (3): Sigmoid()
            )
          )
        )
      )
      (31): RCAB(
        (body): Sequential(
          (0): Conv2d(32, 32, kernel_size=(3, 3), stride=(1, 1), padding=(1, 1))
          (1): ReLU(inplace=True)
          (2): Conv2d(32, 32, kernel_size=(3, 3), stride=(1, 1), padding=(1, 1))
          (3): CALayer(
            (avg_pool): AdaptiveAvgPool2d(output_size=1)
            (conv_du): Sequential(
              (0): Conv2d(32, 2, kernel_size=(1, 1), stride=(1, 1))
              (1): ReLU(inplace=True)
              (2): Conv2d(2, 32, kernel_size=(1, 1), stride=(1, 1))
              (3): Sigmoid()
            )
          )
        )
      )
      (32): RCAB(
        (body): Sequential(
          (0): Conv2d(32, 32, kernel_size=(3, 3), stride=(1, 1), padding=(1, 1))
          (1): ReLU(inplace=True)
          (2): Conv2d(32, 32, kernel_size=(3, 3), stride=(1, 1), padding=(1, 1))
          (3): CALayer(
            (avg_pool): AdaptiveAvgPool2d(output_size=1)
            (conv_du): Sequential(
              (0): Conv2d(32, 2, kernel_size=(1, 1), stride=(1, 1))
              (1): ReLU(inplace=True)
              (2): Conv2d(2, 32, kernel_size=(1, 1), stride=(1, 1))
              (3): Sigmoid()
            )
          )
        )
      )
      (33): RCAB(
        (body): Sequential(
          (0): Conv2d(32, 32, kernel_size=(3, 3), stride=(1, 1), padding=(1, 1))
          (1): ReLU(inplace=True)
          (2): Conv2d(32, 32, kernel_size=(3, 3), stride=(1, 1), padding=(1, 1))
          (3): CALayer(
            (avg_pool): AdaptiveAvgPool2d(output_size=1)
            (conv_du): Sequential(
              (0): Conv2d(32, 2, kernel_size=(1, 1), stride=(1, 1))
              (1): ReLU(inplace=True)
              (2): Conv2d(2, 32, kernel_size=(1, 1), stride=(1, 1))
              (3): Sigmoid()
            )
          )
        )
      )
      (34): RCAB(
        (body): Sequential(
          (0): Conv2d(32, 32, kernel_size=(3, 3), stride=(1, 1), padding=(1, 1))
          (1): ReLU(inplace=True)
          (2): Conv2d(32, 32, kernel_size=(3, 3), stride=(1, 1), padding=(1, 1))
          (3): CALayer(
            (avg_pool): AdaptiveAvgPool2d(output_size=1)
            (conv_du): Sequential(
              (0): Conv2d(32, 2, kernel_size=(1, 1), stride=(1, 1))
              (1): ReLU(inplace=True)
              (2): Conv2d(2, 32, kernel_size=(1, 1), stride=(1, 1))
              (3): Sigmoid()
            )
          )
        )
      )
      (35): RCAB(
        (body): Sequential(
          (0): Conv2d(32, 32, kernel_size=(3, 3), stride=(1, 1), padding=(1, 1))
          (1): ReLU(inplace=True)
          (2): Conv2d(32, 32, kernel_size=(3, 3), stride=(1, 1), padding=(1, 1))
          (3): CALayer(
            (avg_pool): AdaptiveAvgPool2d(output_size=1)
            (conv_du): Sequential(
              (0): Conv2d(32, 2, kernel_size=(1, 1), stride=(1, 1))
              (1): ReLU(inplace=True)
              (2): Conv2d(2, 32, kernel_size=(1, 1), stride=(1, 1))
              (3): Sigmoid()
            )
          )
        )
      )
      (36): RCAB(
        (body): Sequential(
          (0): Conv2d(32, 32, kernel_size=(3, 3), stride=(1, 1), padding=(1, 1))
          (1): ReLU(inplace=True)
          (2): Conv2d(32, 32, kernel_size=(3, 3), stride=(1, 1), padding=(1, 1))
          (3): CALayer(
            (avg_pool): AdaptiveAvgPool2d(output_size=1)
            (conv_du): Sequential(
              (0): Conv2d(32, 2, kernel_size=(1, 1), stride=(1, 1))
              (1): ReLU(inplace=True)
              (2): Conv2d(2, 32, kernel_size=(1, 1), stride=(1, 1))
              (3): Sigmoid()
            )
          )
        )
      )
      (37): RCAB(
        (body): Sequential(
          (0): Conv2d(32, 32, kernel_size=(3, 3), stride=(1, 1), padding=(1, 1))
          (1): ReLU(inplace=True)
          (2): Conv2d(32, 32, kernel_size=(3, 3), stride=(1, 1), padding=(1, 1))
          (3): CALayer(
            (avg_pool): AdaptiveAvgPool2d(output_size=1)
            (conv_du): Sequential(
              (0): Conv2d(32, 2, kernel_size=(1, 1), stride=(1, 1))
              (1): ReLU(inplace=True)
              (2): Conv2d(2, 32, kernel_size=(1, 1), stride=(1, 1))
              (3): Sigmoid()
            )
          )
        )
      )
      (38): RCAB(
        (body): Sequential(
          (0): Conv2d(32, 32, kernel_size=(3, 3), stride=(1, 1), padding=(1, 1))
          (1): ReLU(inplace=True)
          (2): Conv2d(32, 32, kernel_size=(3, 3), stride=(1, 1), padding=(1, 1))
          (3): CALayer(
            (avg_pool): AdaptiveAvgPool2d(output_size=1)
            (conv_du): Sequential(
              (0): Conv2d(32, 2, kernel_size=(1, 1), stride=(1, 1))
              (1): ReLU(inplace=True)
              (2): Conv2d(2, 32, kernel_size=(1, 1), stride=(1, 1))
              (3): Sigmoid()
            )
          )
        )
      )
      (39): RCAB(
        (body): Sequential(
          (0): Conv2d(32, 32, kernel_size=(3, 3), stride=(1, 1), padding=(1, 1))
          (1): ReLU(inplace=True)
          (2): Conv2d(32, 32, kernel_size=(3, 3), stride=(1, 1), padding=(1, 1))
          (3): CALayer(
            (avg_pool): AdaptiveAvgPool2d(output_size=1)
            (conv_du): Sequential(
              (0): Conv2d(32, 2, kernel_size=(1, 1), stride=(1, 1))
              (1): ReLU(inplace=True)
              (2): Conv2d(2, 32, kernel_size=(1, 1), stride=(1, 1))
              (3): Sigmoid()
            )
          )
        )
      )
      (40): Upsampler(
        (0): Conv2d(32, 128, kernel_size=(3, 3), stride=(1, 1), padding=(1, 1))
        (1): PixelShuffle(upscale_factor=2)
      )
      (41): Conv2d(32, 16, kernel_size=(1, 1), stride=(1, 1))
    )
  )
  (tail): ModuleList(
    (0): Conv2d(32, 3, kernel_size=(3, 3), stride=(1, 1), padding=(1, 1))
    (1): Conv2d(32, 3, kernel_size=(3, 3), stride=(1, 1), padding=(1, 1))
  )
  (add_mean): MeanShift(3, 3, kernel_size=(1, 1), stride=(1, 1))
)
[DownBlock(
  (dual_module): Sequential(
    (0): Sequential(
      (0): Conv2d(3, 16, kernel_size=(3, 3), stride=(2, 2), padding=(1, 1), bias=False)
      (1): LeakyReLU(negative_slope=0.2, inplace=True)
    )
    (1): Conv2d(16, 3, kernel_size=(3, 3), stride=(1, 1), padding=(1, 1), bias=False)
  )
)]
The number of parameters is 0.79M
[Epoch 1]	Learning rate: 1.00e-4
DRN(
  (upsample): Upsample(scale_factor=2.0, mode=bicubic)
  (sub_mean): MeanShift(3, 3, kernel_size=(1, 1), stride=(1, 1))
  (head): Conv2d(3, 16, kernel_size=(3, 3), stride=(1, 1), padding=(1, 1))
  (down): ModuleList(
    (0): DownBlock(
      (dual_module): Sequential(
        (0): Sequential(
          (0): Conv2d(16, 16, kernel_size=(3, 3), stride=(2, 2), padding=(1, 1), bias=False)
          (1): LeakyReLU(negative_slope=0.2, inplace=True)
        )
        (1): Conv2d(16, 32, kernel_size=(3, 3), stride=(1, 1), padding=(1, 1), bias=False)
      )
    )
  )
  (up_blocks): ModuleList(
    (0): Sequential(
      (0): RCAB(
        (body): Sequential(
          (0): Conv2d(32, 32, kernel_size=(3, 3), stride=(1, 1), padding=(1, 1))
          (1): ReLU(inplace=True)
          (2): Conv2d(32, 32, kernel_size=(3, 3), stride=(1, 1), padding=(1, 1))
          (3): CALayer(
            (avg_pool): AdaptiveAvgPool2d(output_size=1)
            (conv_du): Sequential(
              (0): Conv2d(32, 2, kernel_size=(1, 1), stride=(1, 1))
              (1): ReLU(inplace=True)
              (2): Conv2d(2, 32, kernel_size=(1, 1), stride=(1, 1))
              (3): Sigmoid()
            )
          )
        )
      )
      (1): RCAB(
        (body): Sequential(
          (0): Conv2d(32, 32, kernel_size=(3, 3), stride=(1, 1), padding=(1, 1))
          (1): ReLU(inplace=True)
          (2): Conv2d(32, 32, kernel_size=(3, 3), stride=(1, 1), padding=(1, 1))
          (3): CALayer(
            (avg_pool): AdaptiveAvgPool2d(output_size=1)
            (conv_du): Sequential(
              (0): Conv2d(32, 2, kernel_size=(1, 1), stride=(1, 1))
              (1): ReLU(inplace=True)
              (2): Conv2d(2, 32, kernel_size=(1, 1), stride=(1, 1))
              (3): Sigmoid()
            )
          )
        )
      )
      (2): RCAB(
        (body): Sequential(
          (0): Conv2d(32, 32, kernel_size=(3, 3), stride=(1, 1), padding=(1, 1))
          (1): ReLU(inplace=True)
          (2): Conv2d(32, 32, kernel_size=(3, 3), stride=(1, 1), padding=(1, 1))
          (3): CALayer(
            (avg_pool): AdaptiveAvgPool2d(output_size=1)
            (conv_du): Sequential(
              (0): Conv2d(32, 2, kernel_size=(1, 1), stride=(1, 1))
              (1): ReLU(inplace=True)
              (2): Conv2d(2, 32, kernel_size=(1, 1), stride=(1, 1))
              (3): Sigmoid()
            )
          )
        )
      )
      (3): RCAB(
        (body): Sequential(
          (0): Conv2d(32, 32, kernel_size=(3, 3), stride=(1, 1), padding=(1, 1))
          (1): ReLU(inplace=True)
          (2): Conv2d(32, 32, kernel_size=(3, 3), stride=(1, 1), padding=(1, 1))
          (3): CALayer(
            (avg_pool): AdaptiveAvgPool2d(output_size=1)
            (conv_du): Sequential(
              (0): Conv2d(32, 2, kernel_size=(1, 1), stride=(1, 1))
              (1): ReLU(inplace=True)
              (2): Conv2d(2, 32, kernel_size=(1, 1), stride=(1, 1))
              (3): Sigmoid()
            )
          )
        )
      )
      (4): RCAB(
        (body): Sequential(
          (0): Conv2d(32, 32, kernel_size=(3, 3), stride=(1, 1), padding=(1, 1))
          (1): ReLU(inplace=True)
          (2): Conv2d(32, 32, kernel_size=(3, 3), stride=(1, 1), padding=(1, 1))
          (3): CALayer(
            (avg_pool): AdaptiveAvgPool2d(output_size=1)
            (conv_du): Sequential(
              (0): Conv2d(32, 2, kernel_size=(1, 1), stride=(1, 1))
              (1): ReLU(inplace=True)
              (2): Conv2d(2, 32, kernel_size=(1, 1), stride=(1, 1))
              (3): Sigmoid()
            )
          )
        )
      )
      (5): RCAB(
        (body): Sequential(
          (0): Conv2d(32, 32, kernel_size=(3, 3), stride=(1, 1), padding=(1, 1))
          (1): ReLU(inplace=True)
          (2): Conv2d(32, 32, kernel_size=(3, 3), stride=(1, 1), padding=(1, 1))
          (3): CALayer(
            (avg_pool): AdaptiveAvgPool2d(output_size=1)
            (conv_du): Sequential(
              (0): Conv2d(32, 2, kernel_size=(1, 1), stride=(1, 1))
              (1): ReLU(inplace=True)
              (2): Conv2d(2, 32, kernel_size=(1, 1), stride=(1, 1))
              (3): Sigmoid()
            )
          )
        )
      )
      (6): RCAB(
        (body): Sequential(
          (0): Conv2d(32, 32, kernel_size=(3, 3), stride=(1, 1), padding=(1, 1))
          (1): ReLU(inplace=True)
          (2): Conv2d(32, 32, kernel_size=(3, 3), stride=(1, 1), padding=(1, 1))
          (3): CALayer(
            (avg_pool): AdaptiveAvgPool2d(output_size=1)
            (conv_du): Sequential(
              (0): Conv2d(32, 2, kernel_size=(1, 1), stride=(1, 1))
              (1): ReLU(inplace=True)
              (2): Conv2d(2, 32, kernel_size=(1, 1), stride=(1, 1))
              (3): Sigmoid()
            )
          )
        )
      )
      (7): RCAB(
        (body): Sequential(
          (0): Conv2d(32, 32, kernel_size=(3, 3), stride=(1, 1), padding=(1, 1))
          (1): ReLU(inplace=True)
          (2): Conv2d(32, 32, kernel_size=(3, 3), stride=(1, 1), padding=(1, 1))
          (3): CALayer(
            (avg_pool): AdaptiveAvgPool2d(output_size=1)
            (conv_du): Sequential(
              (0): Conv2d(32, 2, kernel_size=(1, 1), stride=(1, 1))
              (1): ReLU(inplace=True)
              (2): Conv2d(2, 32, kernel_size=(1, 1), stride=(1, 1))
              (3): Sigmoid()
            )
          )
        )
      )
      (8): RCAB(
        (body): Sequential(
          (0): Conv2d(32, 32, kernel_size=(3, 3), stride=(1, 1), padding=(1, 1))
          (1): ReLU(inplace=True)
          (2): Conv2d(32, 32, kernel_size=(3, 3), stride=(1, 1), padding=(1, 1))
          (3): CALayer(
            (avg_pool): AdaptiveAvgPool2d(output_size=1)
            (conv_du): Sequential(
              (0): Conv2d(32, 2, kernel_size=(1, 1), stride=(1, 1))
              (1): ReLU(inplace=True)
              (2): Conv2d(2, 32, kernel_size=(1, 1), stride=(1, 1))
              (3): Sigmoid()
            )
          )
        )
      )
      (9): RCAB(
        (body): Sequential(
          (0): Conv2d(32, 32, kernel_size=(3, 3), stride=(1, 1), padding=(1, 1))
          (1): ReLU(inplace=True)
          (2): Conv2d(32, 32, kernel_size=(3, 3), stride=(1, 1), padding=(1, 1))
          (3): CALayer(
            (avg_pool): AdaptiveAvgPool2d(output_size=1)
            (conv_du): Sequential(
              (0): Conv2d(32, 2, kernel_size=(1, 1), stride=(1, 1))
              (1): ReLU(inplace=True)
              (2): Conv2d(2, 32, kernel_size=(1, 1), stride=(1, 1))
              (3): Sigmoid()
            )
          )
        )
      )
      (10): RCAB(
        (body): Sequential(
          (0): Conv2d(32, 32, kernel_size=(3, 3), stride=(1, 1), padding=(1, 1))
          (1): ReLU(inplace=True)
          (2): Conv2d(32, 32, kernel_size=(3, 3), stride=(1, 1), padding=(1, 1))
          (3): CALayer(
            (avg_pool): AdaptiveAvgPool2d(output_size=1)
            (conv_du): Sequential(
              (0): Conv2d(32, 2, kernel_size=(1, 1), stride=(1, 1))
              (1): ReLU(inplace=True)
              (2): Conv2d(2, 32, kernel_size=(1, 1), stride=(1, 1))
              (3): Sigmoid()
            )
          )
        )
      )
      (11): RCAB(
        (body): Sequential(
          (0): Conv2d(32, 32, kernel_size=(3, 3), stride=(1, 1), padding=(1, 1))
          (1): ReLU(inplace=True)
          (2): Conv2d(32, 32, kernel_size=(3, 3), stride=(1, 1), padding=(1, 1))
          (3): CALayer(
            (avg_pool): AdaptiveAvgPool2d(output_size=1)
            (conv_du): Sequential(
              (0): Conv2d(32, 2, kernel_size=(1, 1), stride=(1, 1))
              (1): ReLU(inplace=True)
              (2): Conv2d(2, 32, kernel_size=(1, 1), stride=(1, 1))
              (3): Sigmoid()
            )
          )
        )
      )
      (12): RCAB(
        (body): Sequential(
          (0): Conv2d(32, 32, kernel_size=(3, 3), stride=(1, 1), padding=(1, 1))
          (1): ReLU(inplace=True)
          (2): Conv2d(32, 32, kernel_size=(3, 3), stride=(1, 1), padding=(1, 1))
          (3): CALayer(
            (avg_pool): AdaptiveAvgPool2d(output_size=1)
            (conv_du): Sequential(
              (0): Conv2d(32, 2, kernel_size=(1, 1), stride=(1, 1))
              (1): ReLU(inplace=True)
              (2): Conv2d(2, 32, kernel_size=(1, 1), stride=(1, 1))
              (3): Sigmoid()
            )
          )
        )
      )
      (13): RCAB(
        (body): Sequential(
          (0): Conv2d(32, 32, kernel_size=(3, 3), stride=(1, 1), padding=(1, 1))
          (1): ReLU(inplace=True)
          (2): Conv2d(32, 32, kernel_size=(3, 3), stride=(1, 1), padding=(1, 1))
          (3): CALayer(
            (avg_pool): AdaptiveAvgPool2d(output_size=1)
            (conv_du): Sequential(
              (0): Conv2d(32, 2, kernel_size=(1, 1), stride=(1, 1))
              (1): ReLU(inplace=True)
              (2): Conv2d(2, 32, kernel_size=(1, 1), stride=(1, 1))
              (3): Sigmoid()
            )
          )
        )
      )
      (14): RCAB(
        (body): Sequential(
          (0): Conv2d(32, 32, kernel_size=(3, 3), stride=(1, 1), padding=(1, 1))
          (1): ReLU(inplace=True)
          (2): Conv2d(32, 32, kernel_size=(3, 3), stride=(1, 1), padding=(1, 1))
          (3): CALayer(
            (avg_pool): AdaptiveAvgPool2d(output_size=1)
            (conv_du): Sequential(
              (0): Conv2d(32, 2, kernel_size=(1, 1), stride=(1, 1))
              (1): ReLU(inplace=True)
              (2): Conv2d(2, 32, kernel_size=(1, 1), stride=(1, 1))
              (3): Sigmoid()
            )
          )
        )
      )
      (15): RCAB(
        (body): Sequential(
          (0): Conv2d(32, 32, kernel_size=(3, 3), stride=(1, 1), padding=(1, 1))
          (1): ReLU(inplace=True)
          (2): Conv2d(32, 32, kernel_size=(3, 3), stride=(1, 1), padding=(1, 1))
          (3): CALayer(
            (avg_pool): AdaptiveAvgPool2d(output_size=1)
            (conv_du): Sequential(
              (0): Conv2d(32, 2, kernel_size=(1, 1), stride=(1, 1))
              (1): ReLU(inplace=True)
              (2): Conv2d(2, 32, kernel_size=(1, 1), stride=(1, 1))
              (3): Sigmoid()
            )
          )
        )
      )
      (16): RCAB(
        (body): Sequential(
          (0): Conv2d(32, 32, kernel_size=(3, 3), stride=(1, 1), padding=(1, 1))
          (1): ReLU(inplace=True)
          (2): Conv2d(32, 32, kernel_size=(3, 3), stride=(1, 1), padding=(1, 1))
          (3): CALayer(
            (avg_pool): AdaptiveAvgPool2d(output_size=1)
            (conv_du): Sequential(
              (0): Conv2d(32, 2, kernel_size=(1, 1), stride=(1, 1))
              (1): ReLU(inplace=True)
              (2): Conv2d(2, 32, kernel_size=(1, 1), stride=(1, 1))
              (3): Sigmoid()
            )
          )
        )
      )
      (17): RCAB(
        (body): Sequential(
          (0): Conv2d(32, 32, kernel_size=(3, 3), stride=(1, 1), padding=(1, 1))
          (1): ReLU(inplace=True)
          (2): Conv2d(32, 32, kernel_size=(3, 3), stride=(1, 1), padding=(1, 1))
          (3): CALayer(
            (avg_pool): AdaptiveAvgPool2d(output_size=1)
            (conv_du): Sequential(
              (0): Conv2d(32, 2, kernel_size=(1, 1), stride=(1, 1))
              (1): ReLU(inplace=True)
              (2): Conv2d(2, 32, kernel_size=(1, 1), stride=(1, 1))
              (3): Sigmoid()
            )
          )
        )
      )
      (18): RCAB(
        (body): Sequential(
          (0): Conv2d(32, 32, kernel_size=(3, 3), stride=(1, 1), padding=(1, 1))
          (1): ReLU(inplace=True)
          (2): Conv2d(32, 32, kernel_size=(3, 3), stride=(1, 1), padding=(1, 1))
          (3): CALayer(
            (avg_pool): AdaptiveAvgPool2d(output_size=1)
            (conv_du): Sequential(
              (0): Conv2d(32, 2, kernel_size=(1, 1), stride=(1, 1))
              (1): ReLU(inplace=True)
              (2): Conv2d(2, 32, kernel_size=(1, 1), stride=(1, 1))
              (3): Sigmoid()
            )
          )
        )
      )
      (19): RCAB(
        (body): Sequential(
          (0): Conv2d(32, 32, kernel_size=(3, 3), stride=(1, 1), padding=(1, 1))
          (1): ReLU(inplace=True)
          (2): Conv2d(32, 32, kernel_size=(3, 3), stride=(1, 1), padding=(1, 1))
          (3): CALayer(
            (avg_pool): AdaptiveAvgPool2d(output_size=1)
            (conv_du): Sequential(
              (0): Conv2d(32, 2, kernel_size=(1, 1), stride=(1, 1))
              (1): ReLU(inplace=True)
              (2): Conv2d(2, 32, kernel_size=(1, 1), stride=(1, 1))
              (3): Sigmoid()
            )
          )
        )
      )
      (20): RCAB(
        (body): Sequential(
          (0): Conv2d(32, 32, kernel_size=(3, 3), stride=(1, 1), padding=(1, 1))
          (1): ReLU(inplace=True)
          (2): Conv2d(32, 32, kernel_size=(3, 3), stride=(1, 1), padding=(1, 1))
          (3): CALayer(
            (avg_pool): AdaptiveAvgPool2d(output_size=1)
            (conv_du): Sequential(
              (0): Conv2d(32, 2, kernel_size=(1, 1), stride=(1, 1))
              (1): ReLU(inplace=True)
              (2): Conv2d(2, 32, kernel_size=(1, 1), stride=(1, 1))
              (3): Sigmoid()
            )
          )
        )
      )
      (21): RCAB(
        (body): Sequential(
          (0): Conv2d(32, 32, kernel_size=(3, 3), stride=(1, 1), padding=(1, 1))
          (1): ReLU(inplace=True)
          (2): Conv2d(32, 32, kernel_size=(3, 3), stride=(1, 1), padding=(1, 1))
          (3): CALayer(
            (avg_pool): AdaptiveAvgPool2d(output_size=1)
            (conv_du): Sequential(
              (0): Conv2d(32, 2, kernel_size=(1, 1), stride=(1, 1))
              (1): ReLU(inplace=True)
              (2): Conv2d(2, 32, kernel_size=(1, 1), stride=(1, 1))
              (3): Sigmoid()
            )
          )
        )
      )
      (22): RCAB(
        (body): Sequential(
          (0): Conv2d(32, 32, kernel_size=(3, 3), stride=(1, 1), padding=(1, 1))
          (1): ReLU(inplace=True)
          (2): Conv2d(32, 32, kernel_size=(3, 3), stride=(1, 1), padding=(1, 1))
          (3): CALayer(
            (avg_pool): AdaptiveAvgPool2d(output_size=1)
            (conv_du): Sequential(
              (0): Conv2d(32, 2, kernel_size=(1, 1), stride=(1, 1))
              (1): ReLU(inplace=True)
              (2): Conv2d(2, 32, kernel_size=(1, 1), stride=(1, 1))
              (3): Sigmoid()
            )
          )
        )
      )
      (23): RCAB(
        (body): Sequential(
          (0): Conv2d(32, 32, kernel_size=(3, 3), stride=(1, 1), padding=(1, 1))
          (1): ReLU(inplace=True)
          (2): Conv2d(32, 32, kernel_size=(3, 3), stride=(1, 1), padding=(1, 1))
          (3): CALayer(
            (avg_pool): AdaptiveAvgPool2d(output_size=1)
            (conv_du): Sequential(
              (0): Conv2d(32, 2, kernel_size=(1, 1), stride=(1, 1))
              (1): ReLU(inplace=True)
              (2): Conv2d(2, 32, kernel_size=(1, 1), stride=(1, 1))
              (3): Sigmoid()
            )
          )
        )
      )
      (24): RCAB(
        (body): Sequential(
          (0): Conv2d(32, 32, kernel_size=(3, 3), stride=(1, 1), padding=(1, 1))
          (1): ReLU(inplace=True)
          (2): Conv2d(32, 32, kernel_size=(3, 3), stride=(1, 1), padding=(1, 1))
          (3): CALayer(
            (avg_pool): AdaptiveAvgPool2d(output_size=1)
            (conv_du): Sequential(
              (0): Conv2d(32, 2, kernel_size=(1, 1), stride=(1, 1))
              (1): ReLU(inplace=True)
              (2): Conv2d(2, 32, kernel_size=(1, 1), stride=(1, 1))
              (3): Sigmoid()
            )
          )
        )
      )
      (25): RCAB(
        (body): Sequential(
          (0): Conv2d(32, 32, kernel_size=(3, 3), stride=(1, 1), padding=(1, 1))
          (1): ReLU(inplace=True)
          (2): Conv2d(32, 32, kernel_size=(3, 3), stride=(1, 1), padding=(1, 1))
          (3): CALayer(
            (avg_pool): AdaptiveAvgPool2d(output_size=1)
            (conv_du): Sequential(
              (0): Conv2d(32, 2, kernel_size=(1, 1), stride=(1, 1))
              (1): ReLU(inplace=True)
              (2): Conv2d(2, 32, kernel_size=(1, 1), stride=(1, 1))
              (3): Sigmoid()
            )
          )
        )
      )
      (26): RCAB(
        (body): Sequential(
          (0): Conv2d(32, 32, kernel_size=(3, 3), stride=(1, 1), padding=(1, 1))
          (1): ReLU(inplace=True)
          (2): Conv2d(32, 32, kernel_size=(3, 3), stride=(1, 1), padding=(1, 1))
          (3): CALayer(
            (avg_pool): AdaptiveAvgPool2d(output_size=1)
            (conv_du): Sequential(
              (0): Conv2d(32, 2, kernel_size=(1, 1), stride=(1, 1))
              (1): ReLU(inplace=True)
              (2): Conv2d(2, 32, kernel_size=(1, 1), stride=(1, 1))
              (3): Sigmoid()
            )
          )
        )
      )
      (27): RCAB(
        (body): Sequential(
          (0): Conv2d(32, 32, kernel_size=(3, 3), stride=(1, 1), padding=(1, 1))
          (1): ReLU(inplace=True)
          (2): Conv2d(32, 32, kernel_size=(3, 3), stride=(1, 1), padding=(1, 1))
          (3): CALayer(
            (avg_pool): AdaptiveAvgPool2d(output_size=1)
            (conv_du): Sequential(
              (0): Conv2d(32, 2, kernel_size=(1, 1), stride=(1, 1))
              (1): ReLU(inplace=True)
              (2): Conv2d(2, 32, kernel_size=(1, 1), stride=(1, 1))
              (3): Sigmoid()
            )
          )
        )
      )
      (28): RCAB(
        (body): Sequential(
          (0): Conv2d(32, 32, kernel_size=(3, 3), stride=(1, 1), padding=(1, 1))
          (1): ReLU(inplace=True)
          (2): Conv2d(32, 32, kernel_size=(3, 3), stride=(1, 1), padding=(1, 1))
          (3): CALayer(
            (avg_pool): AdaptiveAvgPool2d(output_size=1)
            (conv_du): Sequential(
              (0): Conv2d(32, 2, kernel_size=(1, 1), stride=(1, 1))
              (1): ReLU(inplace=True)
              (2): Conv2d(2, 32, kernel_size=(1, 1), stride=(1, 1))
              (3): Sigmoid()
            )
          )
        )
      )
      (29): RCAB(
        (body): Sequential(
          (0): Conv2d(32, 32, kernel_size=(3, 3), stride=(1, 1), padding=(1, 1))
          (1): ReLU(inplace=True)
          (2): Conv2d(32, 32, kernel_size=(3, 3), stride=(1, 1), padding=(1, 1))
          (3): CALayer(
            (avg_pool): AdaptiveAvgPool2d(output_size=1)
            (conv_du): Sequential(
              (0): Conv2d(32, 2, kernel_size=(1, 1), stride=(1, 1))
              (1): ReLU(inplace=True)
              (2): Conv2d(2, 32, kernel_size=(1, 1), stride=(1, 1))
              (3): Sigmoid()
            )
          )
        )
      )
      (30): RCAB(
        (body): Sequential(
          (0): Conv2d(32, 32, kernel_size=(3, 3), stride=(1, 1), padding=(1, 1))
          (1): ReLU(inplace=True)
          (2): Conv2d(32, 32, kernel_size=(3, 3), stride=(1, 1), padding=(1, 1))
          (3): CALayer(
            (avg_pool): AdaptiveAvgPool2d(output_size=1)
            (conv_du): Sequential(
              (0): Conv2d(32, 2, kernel_size=(1, 1), stride=(1, 1))
              (1): ReLU(inplace=True)
              (2): Conv2d(2, 32, kernel_size=(1, 1), stride=(1, 1))
              (3): Sigmoid()
            )
          )
        )
      )
      (31): RCAB(
        (body): Sequential(
          (0): Conv2d(32, 32, kernel_size=(3, 3), stride=(1, 1), padding=(1, 1))
          (1): ReLU(inplace=True)
          (2): Conv2d(32, 32, kernel_size=(3, 3), stride=(1, 1), padding=(1, 1))
          (3): CALayer(
            (avg_pool): AdaptiveAvgPool2d(output_size=1)
            (conv_du): Sequential(
              (0): Conv2d(32, 2, kernel_size=(1, 1), stride=(1, 1))
              (1): ReLU(inplace=True)
              (2): Conv2d(2, 32, kernel_size=(1, 1), stride=(1, 1))
              (3): Sigmoid()
            )
          )
        )
      )
      (32): RCAB(
        (body): Sequential(
          (0): Conv2d(32, 32, kernel_size=(3, 3), stride=(1, 1), padding=(1, 1))
          (1): ReLU(inplace=True)
          (2): Conv2d(32, 32, kernel_size=(3, 3), stride=(1, 1), padding=(1, 1))
          (3): CALayer(
            (avg_pool): AdaptiveAvgPool2d(output_size=1)
            (conv_du): Sequential(
              (0): Conv2d(32, 2, kernel_size=(1, 1), stride=(1, 1))
              (1): ReLU(inplace=True)
              (2): Conv2d(2, 32, kernel_size=(1, 1), stride=(1, 1))
              (3): Sigmoid()
            )
          )
        )
      )
      (33): RCAB(
        (body): Sequential(
          (0): Conv2d(32, 32, kernel_size=(3, 3), stride=(1, 1), padding=(1, 1))
          (1): ReLU(inplace=True)
          (2): Conv2d(32, 32, kernel_size=(3, 3), stride=(1, 1), padding=(1, 1))
          (3): CALayer(
            (avg_pool): AdaptiveAvgPool2d(output_size=1)
            (conv_du): Sequential(
              (0): Conv2d(32, 2, kernel_size=(1, 1), stride=(1, 1))
              (1): ReLU(inplace=True)
              (2): Conv2d(2, 32, kernel_size=(1, 1), stride=(1, 1))
              (3): Sigmoid()
            )
          )
        )
      )
      (34): RCAB(
        (body): Sequential(
          (0): Conv2d(32, 32, kernel_size=(3, 3), stride=(1, 1), padding=(1, 1))
          (1): ReLU(inplace=True)
          (2): Conv2d(32, 32, kernel_size=(3, 3), stride=(1, 1), padding=(1, 1))
          (3): CALayer(
            (avg_pool): AdaptiveAvgPool2d(output_size=1)
            (conv_du): Sequential(
              (0): Conv2d(32, 2, kernel_size=(1, 1), stride=(1, 1))
              (1): ReLU(inplace=True)
              (2): Conv2d(2, 32, kernel_size=(1, 1), stride=(1, 1))
              (3): Sigmoid()
            )
          )
        )
      )
      (35): RCAB(
        (body): Sequential(
          (0): Conv2d(32, 32, kernel_size=(3, 3), stride=(1, 1), padding=(1, 1))
          (1): ReLU(inplace=True)
          (2): Conv2d(32, 32, kernel_size=(3, 3), stride=(1, 1), padding=(1, 1))
          (3): CALayer(
            (avg_pool): AdaptiveAvgPool2d(output_size=1)
            (conv_du): Sequential(
              (0): Conv2d(32, 2, kernel_size=(1, 1), stride=(1, 1))
              (1): ReLU(inplace=True)
              (2): Conv2d(2, 32, kernel_size=(1, 1), stride=(1, 1))
              (3): Sigmoid()
            )
          )
        )
      )
      (36): RCAB(
        (body): Sequential(
          (0): Conv2d(32, 32, kernel_size=(3, 3), stride=(1, 1), padding=(1, 1))
          (1): ReLU(inplace=True)
          (2): Conv2d(32, 32, kernel_size=(3, 3), stride=(1, 1), padding=(1, 1))
          (3): CALayer(
            (avg_pool): AdaptiveAvgPool2d(output_size=1)
            (conv_du): Sequential(
              (0): Conv2d(32, 2, kernel_size=(1, 1), stride=(1, 1))
              (1): ReLU(inplace=True)
              (2): Conv2d(2, 32, kernel_size=(1, 1), stride=(1, 1))
              (3): Sigmoid()
            )
          )
        )
      )
      (37): RCAB(
        (body): Sequential(
          (0): Conv2d(32, 32, kernel_size=(3, 3), stride=(1, 1), padding=(1, 1))
          (1): ReLU(inplace=True)
          (2): Conv2d(32, 32, kernel_size=(3, 3), stride=(1, 1), padding=(1, 1))
          (3): CALayer(
            (avg_pool): AdaptiveAvgPool2d(output_size=1)
            (conv_du): Sequential(
              (0): Conv2d(32, 2, kernel_size=(1, 1), stride=(1, 1))
              (1): ReLU(inplace=True)
              (2): Conv2d(2, 32, kernel_size=(1, 1), stride=(1, 1))
              (3): Sigmoid()
            )
          )
        )
      )
      (38): RCAB(
        (body): Sequential(
          (0): Conv2d(32, 32, kernel_size=(3, 3), stride=(1, 1), padding=(1, 1))
          (1): ReLU(inplace=True)
          (2): Conv2d(32, 32, kernel_size=(3, 3), stride=(1, 1), padding=(1, 1))
          (3): CALayer(
            (avg_pool): AdaptiveAvgPool2d(output_size=1)
            (conv_du): Sequential(
              (0): Conv2d(32, 2, kernel_size=(1, 1), stride=(1, 1))
              (1): ReLU(inplace=True)
              (2): Conv2d(2, 32, kernel_size=(1, 1), stride=(1, 1))
              (3): Sigmoid()
            )
          )
        )
      )
      (39): RCAB(
        (body): Sequential(
          (0): Conv2d(32, 32, kernel_size=(3, 3), stride=(1, 1), padding=(1, 1))
          (1): ReLU(inplace=True)
          (2): Conv2d(32, 32, kernel_size=(3, 3), stride=(1, 1), padding=(1, 1))
          (3): CALayer(
            (avg_pool): AdaptiveAvgPool2d(output_size=1)
            (conv_du): Sequential(
              (0): Conv2d(32, 2, kernel_size=(1, 1), stride=(1, 1))
              (1): ReLU(inplace=True)
              (2): Conv2d(2, 32, kernel_size=(1, 1), stride=(1, 1))
              (3): Sigmoid()
            )
          )
        )
      )
      (40): Upsampler(
        (0): Conv2d(32, 128, kernel_size=(3, 3), stride=(1, 1), padding=(1, 1))
        (1): PixelShuffle(upscale_factor=2)
      )
      (41): Conv2d(32, 16, kernel_size=(1, 1), stride=(1, 1))
    )
  )
  (tail): ModuleList(
    (0): Conv2d(32, 3, kernel_size=(3, 3), stride=(1, 1), padding=(1, 1))
    (1): Conv2d(32, 3, kernel_size=(3, 3), stride=(1, 1), padding=(1, 1))
  )
  (add_mean): MeanShift(3, 3, kernel_size=(1, 1), stride=(1, 1))
)
[DownBlock(
  (dual_module): Sequential(
    (0): Sequential(
      (0): Conv2d(3, 16, kernel_size=(3, 3), stride=(2, 2), padding=(1, 1), bias=False)
      (1): LeakyReLU(negative_slope=0.2, inplace=True)
    )
    (1): Conv2d(16, 3, kernel_size=(3, 3), stride=(1, 1), padding=(1, 1), bias=False)
  )
)]
The number of parameters is 0.79M
[Epoch 1]	Learning rate: 1.00e-4
DRN(
  (upsample): Upsample(scale_factor=2.0, mode=bicubic)
  (sub_mean): MeanShift(3, 3, kernel_size=(1, 1), stride=(1, 1))
  (head): Conv2d(3, 16, kernel_size=(3, 3), stride=(1, 1), padding=(1, 1))
  (down): ModuleList(
    (0): DownBlock(
      (dual_module): Sequential(
        (0): Sequential(
          (0): Conv2d(16, 16, kernel_size=(3, 3), stride=(2, 2), padding=(1, 1), bias=False)
          (1): LeakyReLU(negative_slope=0.2, inplace=True)
        )
        (1): Conv2d(16, 32, kernel_size=(3, 3), stride=(1, 1), padding=(1, 1), bias=False)
      )
    )
  )
  (up_blocks): ModuleList(
    (0): Sequential(
      (0): RCAB(
        (body): Sequential(
          (0): Conv2d(32, 32, kernel_size=(3, 3), stride=(1, 1), padding=(1, 1))
          (1): ReLU(inplace=True)
          (2): Conv2d(32, 32, kernel_size=(3, 3), stride=(1, 1), padding=(1, 1))
          (3): CALayer(
            (avg_pool): AdaptiveAvgPool2d(output_size=1)
            (conv_du): Sequential(
              (0): Conv2d(32, 2, kernel_size=(1, 1), stride=(1, 1))
              (1): ReLU(inplace=True)
              (2): Conv2d(2, 32, kernel_size=(1, 1), stride=(1, 1))
              (3): Sigmoid()
            )
          )
        )
      )
      (1): RCAB(
        (body): Sequential(
          (0): Conv2d(32, 32, kernel_size=(3, 3), stride=(1, 1), padding=(1, 1))
          (1): ReLU(inplace=True)
          (2): Conv2d(32, 32, kernel_size=(3, 3), stride=(1, 1), padding=(1, 1))
          (3): CALayer(
            (avg_pool): AdaptiveAvgPool2d(output_size=1)
            (conv_du): Sequential(
              (0): Conv2d(32, 2, kernel_size=(1, 1), stride=(1, 1))
              (1): ReLU(inplace=True)
              (2): Conv2d(2, 32, kernel_size=(1, 1), stride=(1, 1))
              (3): Sigmoid()
            )
          )
        )
      )
      (2): RCAB(
        (body): Sequential(
          (0): Conv2d(32, 32, kernel_size=(3, 3), stride=(1, 1), padding=(1, 1))
          (1): ReLU(inplace=True)
          (2): Conv2d(32, 32, kernel_size=(3, 3), stride=(1, 1), padding=(1, 1))
          (3): CALayer(
            (avg_pool): AdaptiveAvgPool2d(output_size=1)
            (conv_du): Sequential(
              (0): Conv2d(32, 2, kernel_size=(1, 1), stride=(1, 1))
              (1): ReLU(inplace=True)
              (2): Conv2d(2, 32, kernel_size=(1, 1), stride=(1, 1))
              (3): Sigmoid()
            )
          )
        )
      )
      (3): RCAB(
        (body): Sequential(
          (0): Conv2d(32, 32, kernel_size=(3, 3), stride=(1, 1), padding=(1, 1))
          (1): ReLU(inplace=True)
          (2): Conv2d(32, 32, kernel_size=(3, 3), stride=(1, 1), padding=(1, 1))
          (3): CALayer(
            (avg_pool): AdaptiveAvgPool2d(output_size=1)
            (conv_du): Sequential(
              (0): Conv2d(32, 2, kernel_size=(1, 1), stride=(1, 1))
              (1): ReLU(inplace=True)
              (2): Conv2d(2, 32, kernel_size=(1, 1), stride=(1, 1))
              (3): Sigmoid()
            )
          )
        )
      )
      (4): RCAB(
        (body): Sequential(
          (0): Conv2d(32, 32, kernel_size=(3, 3), stride=(1, 1), padding=(1, 1))
          (1): ReLU(inplace=True)
          (2): Conv2d(32, 32, kernel_size=(3, 3), stride=(1, 1), padding=(1, 1))
          (3): CALayer(
            (avg_pool): AdaptiveAvgPool2d(output_size=1)
            (conv_du): Sequential(
              (0): Conv2d(32, 2, kernel_size=(1, 1), stride=(1, 1))
              (1): ReLU(inplace=True)
              (2): Conv2d(2, 32, kernel_size=(1, 1), stride=(1, 1))
              (3): Sigmoid()
            )
          )
        )
      )
      (5): RCAB(
        (body): Sequential(
          (0): Conv2d(32, 32, kernel_size=(3, 3), stride=(1, 1), padding=(1, 1))
          (1): ReLU(inplace=True)
          (2): Conv2d(32, 32, kernel_size=(3, 3), stride=(1, 1), padding=(1, 1))
          (3): CALayer(
            (avg_pool): AdaptiveAvgPool2d(output_size=1)
            (conv_du): Sequential(
              (0): Conv2d(32, 2, kernel_size=(1, 1), stride=(1, 1))
              (1): ReLU(inplace=True)
              (2): Conv2d(2, 32, kernel_size=(1, 1), stride=(1, 1))
              (3): Sigmoid()
            )
          )
        )
      )
      (6): RCAB(
        (body): Sequential(
          (0): Conv2d(32, 32, kernel_size=(3, 3), stride=(1, 1), padding=(1, 1))
          (1): ReLU(inplace=True)
          (2): Conv2d(32, 32, kernel_size=(3, 3), stride=(1, 1), padding=(1, 1))
          (3): CALayer(
            (avg_pool): AdaptiveAvgPool2d(output_size=1)
            (conv_du): Sequential(
              (0): Conv2d(32, 2, kernel_size=(1, 1), stride=(1, 1))
              (1): ReLU(inplace=True)
              (2): Conv2d(2, 32, kernel_size=(1, 1), stride=(1, 1))
              (3): Sigmoid()
            )
          )
        )
      )
      (7): RCAB(
        (body): Sequential(
          (0): Conv2d(32, 32, kernel_size=(3, 3), stride=(1, 1), padding=(1, 1))
          (1): ReLU(inplace=True)
          (2): Conv2d(32, 32, kernel_size=(3, 3), stride=(1, 1), padding=(1, 1))
          (3): CALayer(
            (avg_pool): AdaptiveAvgPool2d(output_size=1)
            (conv_du): Sequential(
              (0): Conv2d(32, 2, kernel_size=(1, 1), stride=(1, 1))
              (1): ReLU(inplace=True)
              (2): Conv2d(2, 32, kernel_size=(1, 1), stride=(1, 1))
              (3): Sigmoid()
            )
          )
        )
      )
      (8): RCAB(
        (body): Sequential(
          (0): Conv2d(32, 32, kernel_size=(3, 3), stride=(1, 1), padding=(1, 1))
          (1): ReLU(inplace=True)
          (2): Conv2d(32, 32, kernel_size=(3, 3), stride=(1, 1), padding=(1, 1))
          (3): CALayer(
            (avg_pool): AdaptiveAvgPool2d(output_size=1)
            (conv_du): Sequential(
              (0): Conv2d(32, 2, kernel_size=(1, 1), stride=(1, 1))
              (1): ReLU(inplace=True)
              (2): Conv2d(2, 32, kernel_size=(1, 1), stride=(1, 1))
              (3): Sigmoid()
            )
          )
        )
      )
      (9): RCAB(
        (body): Sequential(
          (0): Conv2d(32, 32, kernel_size=(3, 3), stride=(1, 1), padding=(1, 1))
          (1): ReLU(inplace=True)
          (2): Conv2d(32, 32, kernel_size=(3, 3), stride=(1, 1), padding=(1, 1))
          (3): CALayer(
            (avg_pool): AdaptiveAvgPool2d(output_size=1)
            (conv_du): Sequential(
              (0): Conv2d(32, 2, kernel_size=(1, 1), stride=(1, 1))
              (1): ReLU(inplace=True)
              (2): Conv2d(2, 32, kernel_size=(1, 1), stride=(1, 1))
              (3): Sigmoid()
            )
          )
        )
      )
      (10): RCAB(
        (body): Sequential(
          (0): Conv2d(32, 32, kernel_size=(3, 3), stride=(1, 1), padding=(1, 1))
          (1): ReLU(inplace=True)
          (2): Conv2d(32, 32, kernel_size=(3, 3), stride=(1, 1), padding=(1, 1))
          (3): CALayer(
            (avg_pool): AdaptiveAvgPool2d(output_size=1)
            (conv_du): Sequential(
              (0): Conv2d(32, 2, kernel_size=(1, 1), stride=(1, 1))
              (1): ReLU(inplace=True)
              (2): Conv2d(2, 32, kernel_size=(1, 1), stride=(1, 1))
              (3): Sigmoid()
            )
          )
        )
      )
      (11): RCAB(
        (body): Sequential(
          (0): Conv2d(32, 32, kernel_size=(3, 3), stride=(1, 1), padding=(1, 1))
          (1): ReLU(inplace=True)
          (2): Conv2d(32, 32, kernel_size=(3, 3), stride=(1, 1), padding=(1, 1))
          (3): CALayer(
            (avg_pool): AdaptiveAvgPool2d(output_size=1)
            (conv_du): Sequential(
              (0): Conv2d(32, 2, kernel_size=(1, 1), stride=(1, 1))
              (1): ReLU(inplace=True)
              (2): Conv2d(2, 32, kernel_size=(1, 1), stride=(1, 1))
              (3): Sigmoid()
            )
          )
        )
      )
      (12): RCAB(
        (body): Sequential(
          (0): Conv2d(32, 32, kernel_size=(3, 3), stride=(1, 1), padding=(1, 1))
          (1): ReLU(inplace=True)
          (2): Conv2d(32, 32, kernel_size=(3, 3), stride=(1, 1), padding=(1, 1))
          (3): CALayer(
            (avg_pool): AdaptiveAvgPool2d(output_size=1)
            (conv_du): Sequential(
              (0): Conv2d(32, 2, kernel_size=(1, 1), stride=(1, 1))
              (1): ReLU(inplace=True)
              (2): Conv2d(2, 32, kernel_size=(1, 1), stride=(1, 1))
              (3): Sigmoid()
            )
          )
        )
      )
      (13): RCAB(
        (body): Sequential(
          (0): Conv2d(32, 32, kernel_size=(3, 3), stride=(1, 1), padding=(1, 1))
          (1): ReLU(inplace=True)
          (2): Conv2d(32, 32, kernel_size=(3, 3), stride=(1, 1), padding=(1, 1))
          (3): CALayer(
            (avg_pool): AdaptiveAvgPool2d(output_size=1)
            (conv_du): Sequential(
              (0): Conv2d(32, 2, kernel_size=(1, 1), stride=(1, 1))
              (1): ReLU(inplace=True)
              (2): Conv2d(2, 32, kernel_size=(1, 1), stride=(1, 1))
              (3): Sigmoid()
            )
          )
        )
      )
      (14): RCAB(
        (body): Sequential(
          (0): Conv2d(32, 32, kernel_size=(3, 3), stride=(1, 1), padding=(1, 1))
          (1): ReLU(inplace=True)
          (2): Conv2d(32, 32, kernel_size=(3, 3), stride=(1, 1), padding=(1, 1))
          (3): CALayer(
            (avg_pool): AdaptiveAvgPool2d(output_size=1)
            (conv_du): Sequential(
              (0): Conv2d(32, 2, kernel_size=(1, 1), stride=(1, 1))
              (1): ReLU(inplace=True)
              (2): Conv2d(2, 32, kernel_size=(1, 1), stride=(1, 1))
              (3): Sigmoid()
            )
          )
        )
      )
      (15): RCAB(
        (body): Sequential(
          (0): Conv2d(32, 32, kernel_size=(3, 3), stride=(1, 1), padding=(1, 1))
          (1): ReLU(inplace=True)
          (2): Conv2d(32, 32, kernel_size=(3, 3), stride=(1, 1), padding=(1, 1))
          (3): CALayer(
            (avg_pool): AdaptiveAvgPool2d(output_size=1)
            (conv_du): Sequential(
              (0): Conv2d(32, 2, kernel_size=(1, 1), stride=(1, 1))
              (1): ReLU(inplace=True)
              (2): Conv2d(2, 32, kernel_size=(1, 1), stride=(1, 1))
              (3): Sigmoid()
            )
          )
        )
      )
      (16): RCAB(
        (body): Sequential(
          (0): Conv2d(32, 32, kernel_size=(3, 3), stride=(1, 1), padding=(1, 1))
          (1): ReLU(inplace=True)
          (2): Conv2d(32, 32, kernel_size=(3, 3), stride=(1, 1), padding=(1, 1))
          (3): CALayer(
            (avg_pool): AdaptiveAvgPool2d(output_size=1)
            (conv_du): Sequential(
              (0): Conv2d(32, 2, kernel_size=(1, 1), stride=(1, 1))
              (1): ReLU(inplace=True)
              (2): Conv2d(2, 32, kernel_size=(1, 1), stride=(1, 1))
              (3): Sigmoid()
            )
          )
        )
      )
      (17): RCAB(
        (body): Sequential(
          (0): Conv2d(32, 32, kernel_size=(3, 3), stride=(1, 1), padding=(1, 1))
          (1): ReLU(inplace=True)
          (2): Conv2d(32, 32, kernel_size=(3, 3), stride=(1, 1), padding=(1, 1))
          (3): CALayer(
            (avg_pool): AdaptiveAvgPool2d(output_size=1)
            (conv_du): Sequential(
              (0): Conv2d(32, 2, kernel_size=(1, 1), stride=(1, 1))
              (1): ReLU(inplace=True)
              (2): Conv2d(2, 32, kernel_size=(1, 1), stride=(1, 1))
              (3): Sigmoid()
            )
          )
        )
      )
      (18): RCAB(
        (body): Sequential(
          (0): Conv2d(32, 32, kernel_size=(3, 3), stride=(1, 1), padding=(1, 1))
          (1): ReLU(inplace=True)
          (2): Conv2d(32, 32, kernel_size=(3, 3), stride=(1, 1), padding=(1, 1))
          (3): CALayer(
            (avg_pool): AdaptiveAvgPool2d(output_size=1)
            (conv_du): Sequential(
              (0): Conv2d(32, 2, kernel_size=(1, 1), stride=(1, 1))
              (1): ReLU(inplace=True)
              (2): Conv2d(2, 32, kernel_size=(1, 1), stride=(1, 1))
              (3): Sigmoid()
            )
          )
        )
      )
      (19): RCAB(
        (body): Sequential(
          (0): Conv2d(32, 32, kernel_size=(3, 3), stride=(1, 1), padding=(1, 1))
          (1): ReLU(inplace=True)
          (2): Conv2d(32, 32, kernel_size=(3, 3), stride=(1, 1), padding=(1, 1))
          (3): CALayer(
            (avg_pool): AdaptiveAvgPool2d(output_size=1)
            (conv_du): Sequential(
              (0): Conv2d(32, 2, kernel_size=(1, 1), stride=(1, 1))
              (1): ReLU(inplace=True)
              (2): Conv2d(2, 32, kernel_size=(1, 1), stride=(1, 1))
              (3): Sigmoid()
            )
          )
        )
      )
      (20): RCAB(
        (body): Sequential(
          (0): Conv2d(32, 32, kernel_size=(3, 3), stride=(1, 1), padding=(1, 1))
          (1): ReLU(inplace=True)
          (2): Conv2d(32, 32, kernel_size=(3, 3), stride=(1, 1), padding=(1, 1))
          (3): CALayer(
            (avg_pool): AdaptiveAvgPool2d(output_size=1)
            (conv_du): Sequential(
              (0): Conv2d(32, 2, kernel_size=(1, 1), stride=(1, 1))
              (1): ReLU(inplace=True)
              (2): Conv2d(2, 32, kernel_size=(1, 1), stride=(1, 1))
              (3): Sigmoid()
            )
          )
        )
      )
      (21): RCAB(
        (body): Sequential(
          (0): Conv2d(32, 32, kernel_size=(3, 3), stride=(1, 1), padding=(1, 1))
          (1): ReLU(inplace=True)
          (2): Conv2d(32, 32, kernel_size=(3, 3), stride=(1, 1), padding=(1, 1))
          (3): CALayer(
            (avg_pool): AdaptiveAvgPool2d(output_size=1)
            (conv_du): Sequential(
              (0): Conv2d(32, 2, kernel_size=(1, 1), stride=(1, 1))
              (1): ReLU(inplace=True)
              (2): Conv2d(2, 32, kernel_size=(1, 1), stride=(1, 1))
              (3): Sigmoid()
            )
          )
        )
      )
      (22): RCAB(
        (body): Sequential(
          (0): Conv2d(32, 32, kernel_size=(3, 3), stride=(1, 1), padding=(1, 1))
          (1): ReLU(inplace=True)
          (2): Conv2d(32, 32, kernel_size=(3, 3), stride=(1, 1), padding=(1, 1))
          (3): CALayer(
            (avg_pool): AdaptiveAvgPool2d(output_size=1)
            (conv_du): Sequential(
              (0): Conv2d(32, 2, kernel_size=(1, 1), stride=(1, 1))
              (1): ReLU(inplace=True)
              (2): Conv2d(2, 32, kernel_size=(1, 1), stride=(1, 1))
              (3): Sigmoid()
            )
          )
        )
      )
      (23): RCAB(
        (body): Sequential(
          (0): Conv2d(32, 32, kernel_size=(3, 3), stride=(1, 1), padding=(1, 1))
          (1): ReLU(inplace=True)
          (2): Conv2d(32, 32, kernel_size=(3, 3), stride=(1, 1), padding=(1, 1))
          (3): CALayer(
            (avg_pool): AdaptiveAvgPool2d(output_size=1)
            (conv_du): Sequential(
              (0): Conv2d(32, 2, kernel_size=(1, 1), stride=(1, 1))
              (1): ReLU(inplace=True)
              (2): Conv2d(2, 32, kernel_size=(1, 1), stride=(1, 1))
              (3): Sigmoid()
            )
          )
        )
      )
      (24): RCAB(
        (body): Sequential(
          (0): Conv2d(32, 32, kernel_size=(3, 3), stride=(1, 1), padding=(1, 1))
          (1): ReLU(inplace=True)
          (2): Conv2d(32, 32, kernel_size=(3, 3), stride=(1, 1), padding=(1, 1))
          (3): CALayer(
            (avg_pool): AdaptiveAvgPool2d(output_size=1)
            (conv_du): Sequential(
              (0): Conv2d(32, 2, kernel_size=(1, 1), stride=(1, 1))
              (1): ReLU(inplace=True)
              (2): Conv2d(2, 32, kernel_size=(1, 1), stride=(1, 1))
              (3): Sigmoid()
            )
          )
        )
      )
      (25): RCAB(
        (body): Sequential(
          (0): Conv2d(32, 32, kernel_size=(3, 3), stride=(1, 1), padding=(1, 1))
          (1): ReLU(inplace=True)
          (2): Conv2d(32, 32, kernel_size=(3, 3), stride=(1, 1), padding=(1, 1))
          (3): CALayer(
            (avg_pool): AdaptiveAvgPool2d(output_size=1)
            (conv_du): Sequential(
              (0): Conv2d(32, 2, kernel_size=(1, 1), stride=(1, 1))
              (1): ReLU(inplace=True)
              (2): Conv2d(2, 32, kernel_size=(1, 1), stride=(1, 1))
              (3): Sigmoid()
            )
          )
        )
      )
      (26): RCAB(
        (body): Sequential(
          (0): Conv2d(32, 32, kernel_size=(3, 3), stride=(1, 1), padding=(1, 1))
          (1): ReLU(inplace=True)
          (2): Conv2d(32, 32, kernel_size=(3, 3), stride=(1, 1), padding=(1, 1))
          (3): CALayer(
            (avg_pool): AdaptiveAvgPool2d(output_size=1)
            (conv_du): Sequential(
              (0): Conv2d(32, 2, kernel_size=(1, 1), stride=(1, 1))
              (1): ReLU(inplace=True)
              (2): Conv2d(2, 32, kernel_size=(1, 1), stride=(1, 1))
              (3): Sigmoid()
            )
          )
        )
      )
      (27): RCAB(
        (body): Sequential(
          (0): Conv2d(32, 32, kernel_size=(3, 3), stride=(1, 1), padding=(1, 1))
          (1): ReLU(inplace=True)
          (2): Conv2d(32, 32, kernel_size=(3, 3), stride=(1, 1), padding=(1, 1))
          (3): CALayer(
            (avg_pool): AdaptiveAvgPool2d(output_size=1)
            (conv_du): Sequential(
              (0): Conv2d(32, 2, kernel_size=(1, 1), stride=(1, 1))
              (1): ReLU(inplace=True)
              (2): Conv2d(2, 32, kernel_size=(1, 1), stride=(1, 1))
              (3): Sigmoid()
            )
          )
        )
      )
      (28): RCAB(
        (body): Sequential(
          (0): Conv2d(32, 32, kernel_size=(3, 3), stride=(1, 1), padding=(1, 1))
          (1): ReLU(inplace=True)
          (2): Conv2d(32, 32, kernel_size=(3, 3), stride=(1, 1), padding=(1, 1))
          (3): CALayer(
            (avg_pool): AdaptiveAvgPool2d(output_size=1)
            (conv_du): Sequential(
              (0): Conv2d(32, 2, kernel_size=(1, 1), stride=(1, 1))
              (1): ReLU(inplace=True)
              (2): Conv2d(2, 32, kernel_size=(1, 1), stride=(1, 1))
              (3): Sigmoid()
            )
          )
        )
      )
      (29): RCAB(
        (body): Sequential(
          (0): Conv2d(32, 32, kernel_size=(3, 3), stride=(1, 1), padding=(1, 1))
          (1): ReLU(inplace=True)
          (2): Conv2d(32, 32, kernel_size=(3, 3), stride=(1, 1), padding=(1, 1))
          (3): CALayer(
            (avg_pool): AdaptiveAvgPool2d(output_size=1)
            (conv_du): Sequential(
              (0): Conv2d(32, 2, kernel_size=(1, 1), stride=(1, 1))
              (1): ReLU(inplace=True)
              (2): Conv2d(2, 32, kernel_size=(1, 1), stride=(1, 1))
              (3): Sigmoid()
            )
          )
        )
      )
      (30): RCAB(
        (body): Sequential(
          (0): Conv2d(32, 32, kernel_size=(3, 3), stride=(1, 1), padding=(1, 1))
          (1): ReLU(inplace=True)
          (2): Conv2d(32, 32, kernel_size=(3, 3), stride=(1, 1), padding=(1, 1))
          (3): CALayer(
            (avg_pool): AdaptiveAvgPool2d(output_size=1)
            (conv_du): Sequential(
              (0): Conv2d(32, 2, kernel_size=(1, 1), stride=(1, 1))
              (1): ReLU(inplace=True)
              (2): Conv2d(2, 32, kernel_size=(1, 1), stride=(1, 1))
              (3): Sigmoid()
            )
          )
        )
      )
      (31): RCAB(
        (body): Sequential(
          (0): Conv2d(32, 32, kernel_size=(3, 3), stride=(1, 1), padding=(1, 1))
          (1): ReLU(inplace=True)
          (2): Conv2d(32, 32, kernel_size=(3, 3), stride=(1, 1), padding=(1, 1))
          (3): CALayer(
            (avg_pool): AdaptiveAvgPool2d(output_size=1)
            (conv_du): Sequential(
              (0): Conv2d(32, 2, kernel_size=(1, 1), stride=(1, 1))
              (1): ReLU(inplace=True)
              (2): Conv2d(2, 32, kernel_size=(1, 1), stride=(1, 1))
              (3): Sigmoid()
            )
          )
        )
      )
      (32): RCAB(
        (body): Sequential(
          (0): Conv2d(32, 32, kernel_size=(3, 3), stride=(1, 1), padding=(1, 1))
          (1): ReLU(inplace=True)
          (2): Conv2d(32, 32, kernel_size=(3, 3), stride=(1, 1), padding=(1, 1))
          (3): CALayer(
            (avg_pool): AdaptiveAvgPool2d(output_size=1)
            (conv_du): Sequential(
              (0): Conv2d(32, 2, kernel_size=(1, 1), stride=(1, 1))
              (1): ReLU(inplace=True)
              (2): Conv2d(2, 32, kernel_size=(1, 1), stride=(1, 1))
              (3): Sigmoid()
            )
          )
        )
      )
      (33): RCAB(
        (body): Sequential(
          (0): Conv2d(32, 32, kernel_size=(3, 3), stride=(1, 1), padding=(1, 1))
          (1): ReLU(inplace=True)
          (2): Conv2d(32, 32, kernel_size=(3, 3), stride=(1, 1), padding=(1, 1))
          (3): CALayer(
            (avg_pool): AdaptiveAvgPool2d(output_size=1)
            (conv_du): Sequential(
              (0): Conv2d(32, 2, kernel_size=(1, 1), stride=(1, 1))
              (1): ReLU(inplace=True)
              (2): Conv2d(2, 32, kernel_size=(1, 1), stride=(1, 1))
              (3): Sigmoid()
            )
          )
        )
      )
      (34): RCAB(
        (body): Sequential(
          (0): Conv2d(32, 32, kernel_size=(3, 3), stride=(1, 1), padding=(1, 1))
          (1): ReLU(inplace=True)
          (2): Conv2d(32, 32, kernel_size=(3, 3), stride=(1, 1), padding=(1, 1))
          (3): CALayer(
            (avg_pool): AdaptiveAvgPool2d(output_size=1)
            (conv_du): Sequential(
              (0): Conv2d(32, 2, kernel_size=(1, 1), stride=(1, 1))
              (1): ReLU(inplace=True)
              (2): Conv2d(2, 32, kernel_size=(1, 1), stride=(1, 1))
              (3): Sigmoid()
            )
          )
        )
      )
      (35): RCAB(
        (body): Sequential(
          (0): Conv2d(32, 32, kernel_size=(3, 3), stride=(1, 1), padding=(1, 1))
          (1): ReLU(inplace=True)
          (2): Conv2d(32, 32, kernel_size=(3, 3), stride=(1, 1), padding=(1, 1))
          (3): CALayer(
            (avg_pool): AdaptiveAvgPool2d(output_size=1)
            (conv_du): Sequential(
              (0): Conv2d(32, 2, kernel_size=(1, 1), stride=(1, 1))
              (1): ReLU(inplace=True)
              (2): Conv2d(2, 32, kernel_size=(1, 1), stride=(1, 1))
              (3): Sigmoid()
            )
          )
        )
      )
      (36): RCAB(
        (body): Sequential(
          (0): Conv2d(32, 32, kernel_size=(3, 3), stride=(1, 1), padding=(1, 1))
          (1): ReLU(inplace=True)
          (2): Conv2d(32, 32, kernel_size=(3, 3), stride=(1, 1), padding=(1, 1))
          (3): CALayer(
            (avg_pool): AdaptiveAvgPool2d(output_size=1)
            (conv_du): Sequential(
              (0): Conv2d(32, 2, kernel_size=(1, 1), stride=(1, 1))
              (1): ReLU(inplace=True)
              (2): Conv2d(2, 32, kernel_size=(1, 1), stride=(1, 1))
              (3): Sigmoid()
            )
          )
        )
      )
      (37): RCAB(
        (body): Sequential(
          (0): Conv2d(32, 32, kernel_size=(3, 3), stride=(1, 1), padding=(1, 1))
          (1): ReLU(inplace=True)
          (2): Conv2d(32, 32, kernel_size=(3, 3), stride=(1, 1), padding=(1, 1))
          (3): CALayer(
            (avg_pool): AdaptiveAvgPool2d(output_size=1)
            (conv_du): Sequential(
              (0): Conv2d(32, 2, kernel_size=(1, 1), stride=(1, 1))
              (1): ReLU(inplace=True)
              (2): Conv2d(2, 32, kernel_size=(1, 1), stride=(1, 1))
              (3): Sigmoid()
            )
          )
        )
      )
      (38): RCAB(
        (body): Sequential(
          (0): Conv2d(32, 32, kernel_size=(3, 3), stride=(1, 1), padding=(1, 1))
          (1): ReLU(inplace=True)
          (2): Conv2d(32, 32, kernel_size=(3, 3), stride=(1, 1), padding=(1, 1))
          (3): CALayer(
            (avg_pool): AdaptiveAvgPool2d(output_size=1)
            (conv_du): Sequential(
              (0): Conv2d(32, 2, kernel_size=(1, 1), stride=(1, 1))
              (1): ReLU(inplace=True)
              (2): Conv2d(2, 32, kernel_size=(1, 1), stride=(1, 1))
              (3): Sigmoid()
            )
          )
        )
      )
      (39): RCAB(
        (body): Sequential(
          (0): Conv2d(32, 32, kernel_size=(3, 3), stride=(1, 1), padding=(1, 1))
          (1): ReLU(inplace=True)
          (2): Conv2d(32, 32, kernel_size=(3, 3), stride=(1, 1), padding=(1, 1))
          (3): CALayer(
            (avg_pool): AdaptiveAvgPool2d(output_size=1)
            (conv_du): Sequential(
              (0): Conv2d(32, 2, kernel_size=(1, 1), stride=(1, 1))
              (1): ReLU(inplace=True)
              (2): Conv2d(2, 32, kernel_size=(1, 1), stride=(1, 1))
              (3): Sigmoid()
            )
          )
        )
      )
      (40): Upsampler(
        (0): Conv2d(32, 128, kernel_size=(3, 3), stride=(1, 1), padding=(1, 1))
        (1): PixelShuffle(upscale_factor=2)
      )
      (41): Conv2d(32, 16, kernel_size=(1, 1), stride=(1, 1))
    )
  )
  (tail): ModuleList(
    (0): Conv2d(32, 3, kernel_size=(3, 3), stride=(1, 1), padding=(1, 1))
    (1): Conv2d(32, 3, kernel_size=(3, 3), stride=(1, 1), padding=(1, 1))
  )
  (add_mean): MeanShift(3, 3, kernel_size=(1, 1), stride=(1, 1))
)
[DownBlock(
  (dual_module): Sequential(
    (0): Sequential(
      (0): Conv2d(3, 16, kernel_size=(3, 3), stride=(2, 2), padding=(1, 1), bias=False)
      (1): LeakyReLU(negative_slope=0.2, inplace=True)
    )
    (1): Conv2d(16, 3, kernel_size=(3, 3), stride=(1, 1), padding=(1, 1), bias=False)
  )
)]
The number of parameters is 0.79M
[Epoch 1]	Learning rate: 1.00e-4
DRN(
  (upsample): Upsample(scale_factor=2.0, mode=bicubic)
  (sub_mean): MeanShift(3, 3, kernel_size=(1, 1), stride=(1, 1))
  (head): Conv2d(3, 16, kernel_size=(3, 3), stride=(1, 1), padding=(1, 1))
  (down): ModuleList(
    (0): DownBlock(
      (dual_module): Sequential(
        (0): Sequential(
          (0): Conv2d(16, 16, kernel_size=(3, 3), stride=(2, 2), padding=(1, 1), bias=False)
          (1): LeakyReLU(negative_slope=0.2, inplace=True)
        )
        (1): Conv2d(16, 32, kernel_size=(3, 3), stride=(1, 1), padding=(1, 1), bias=False)
      )
    )
  )
  (up_blocks): ModuleList(
    (0): Sequential(
      (0): RCAB(
        (body): Sequential(
          (0): Conv2d(32, 32, kernel_size=(3, 3), stride=(1, 1), padding=(1, 1))
          (1): ReLU(inplace=True)
          (2): Conv2d(32, 32, kernel_size=(3, 3), stride=(1, 1), padding=(1, 1))
          (3): CALayer(
            (avg_pool): AdaptiveAvgPool2d(output_size=1)
            (conv_du): Sequential(
              (0): Conv2d(32, 2, kernel_size=(1, 1), stride=(1, 1))
              (1): ReLU(inplace=True)
              (2): Conv2d(2, 32, kernel_size=(1, 1), stride=(1, 1))
              (3): Sigmoid()
            )
          )
        )
      )
      (1): RCAB(
        (body): Sequential(
          (0): Conv2d(32, 32, kernel_size=(3, 3), stride=(1, 1), padding=(1, 1))
          (1): ReLU(inplace=True)
          (2): Conv2d(32, 32, kernel_size=(3, 3), stride=(1, 1), padding=(1, 1))
          (3): CALayer(
            (avg_pool): AdaptiveAvgPool2d(output_size=1)
            (conv_du): Sequential(
              (0): Conv2d(32, 2, kernel_size=(1, 1), stride=(1, 1))
              (1): ReLU(inplace=True)
              (2): Conv2d(2, 32, kernel_size=(1, 1), stride=(1, 1))
              (3): Sigmoid()
            )
          )
        )
      )
      (2): RCAB(
        (body): Sequential(
          (0): Conv2d(32, 32, kernel_size=(3, 3), stride=(1, 1), padding=(1, 1))
          (1): ReLU(inplace=True)
          (2): Conv2d(32, 32, kernel_size=(3, 3), stride=(1, 1), padding=(1, 1))
          (3): CALayer(
            (avg_pool): AdaptiveAvgPool2d(output_size=1)
            (conv_du): Sequential(
              (0): Conv2d(32, 2, kernel_size=(1, 1), stride=(1, 1))
              (1): ReLU(inplace=True)
              (2): Conv2d(2, 32, kernel_size=(1, 1), stride=(1, 1))
              (3): Sigmoid()
            )
          )
        )
      )
      (3): RCAB(
        (body): Sequential(
          (0): Conv2d(32, 32, kernel_size=(3, 3), stride=(1, 1), padding=(1, 1))
          (1): ReLU(inplace=True)
          (2): Conv2d(32, 32, kernel_size=(3, 3), stride=(1, 1), padding=(1, 1))
          (3): CALayer(
            (avg_pool): AdaptiveAvgPool2d(output_size=1)
            (conv_du): Sequential(
              (0): Conv2d(32, 2, kernel_size=(1, 1), stride=(1, 1))
              (1): ReLU(inplace=True)
              (2): Conv2d(2, 32, kernel_size=(1, 1), stride=(1, 1))
              (3): Sigmoid()
            )
          )
        )
      )
      (4): RCAB(
        (body): Sequential(
          (0): Conv2d(32, 32, kernel_size=(3, 3), stride=(1, 1), padding=(1, 1))
          (1): ReLU(inplace=True)
          (2): Conv2d(32, 32, kernel_size=(3, 3), stride=(1, 1), padding=(1, 1))
          (3): CALayer(
            (avg_pool): AdaptiveAvgPool2d(output_size=1)
            (conv_du): Sequential(
              (0): Conv2d(32, 2, kernel_size=(1, 1), stride=(1, 1))
              (1): ReLU(inplace=True)
              (2): Conv2d(2, 32, kernel_size=(1, 1), stride=(1, 1))
              (3): Sigmoid()
            )
          )
        )
      )
      (5): RCAB(
        (body): Sequential(
          (0): Conv2d(32, 32, kernel_size=(3, 3), stride=(1, 1), padding=(1, 1))
          (1): ReLU(inplace=True)
          (2): Conv2d(32, 32, kernel_size=(3, 3), stride=(1, 1), padding=(1, 1))
          (3): CALayer(
            (avg_pool): AdaptiveAvgPool2d(output_size=1)
            (conv_du): Sequential(
              (0): Conv2d(32, 2, kernel_size=(1, 1), stride=(1, 1))
              (1): ReLU(inplace=True)
              (2): Conv2d(2, 32, kernel_size=(1, 1), stride=(1, 1))
              (3): Sigmoid()
            )
          )
        )
      )
      (6): RCAB(
        (body): Sequential(
          (0): Conv2d(32, 32, kernel_size=(3, 3), stride=(1, 1), padding=(1, 1))
          (1): ReLU(inplace=True)
          (2): Conv2d(32, 32, kernel_size=(3, 3), stride=(1, 1), padding=(1, 1))
          (3): CALayer(
            (avg_pool): AdaptiveAvgPool2d(output_size=1)
            (conv_du): Sequential(
              (0): Conv2d(32, 2, kernel_size=(1, 1), stride=(1, 1))
              (1): ReLU(inplace=True)
              (2): Conv2d(2, 32, kernel_size=(1, 1), stride=(1, 1))
              (3): Sigmoid()
            )
          )
        )
      )
      (7): RCAB(
        (body): Sequential(
          (0): Conv2d(32, 32, kernel_size=(3, 3), stride=(1, 1), padding=(1, 1))
          (1): ReLU(inplace=True)
          (2): Conv2d(32, 32, kernel_size=(3, 3), stride=(1, 1), padding=(1, 1))
          (3): CALayer(
            (avg_pool): AdaptiveAvgPool2d(output_size=1)
            (conv_du): Sequential(
              (0): Conv2d(32, 2, kernel_size=(1, 1), stride=(1, 1))
              (1): ReLU(inplace=True)
              (2): Conv2d(2, 32, kernel_size=(1, 1), stride=(1, 1))
              (3): Sigmoid()
            )
          )
        )
      )
      (8): RCAB(
        (body): Sequential(
          (0): Conv2d(32, 32, kernel_size=(3, 3), stride=(1, 1), padding=(1, 1))
          (1): ReLU(inplace=True)
          (2): Conv2d(32, 32, kernel_size=(3, 3), stride=(1, 1), padding=(1, 1))
          (3): CALayer(
            (avg_pool): AdaptiveAvgPool2d(output_size=1)
            (conv_du): Sequential(
              (0): Conv2d(32, 2, kernel_size=(1, 1), stride=(1, 1))
              (1): ReLU(inplace=True)
              (2): Conv2d(2, 32, kernel_size=(1, 1), stride=(1, 1))
              (3): Sigmoid()
            )
          )
        )
      )
      (9): RCAB(
        (body): Sequential(
          (0): Conv2d(32, 32, kernel_size=(3, 3), stride=(1, 1), padding=(1, 1))
          (1): ReLU(inplace=True)
          (2): Conv2d(32, 32, kernel_size=(3, 3), stride=(1, 1), padding=(1, 1))
          (3): CALayer(
            (avg_pool): AdaptiveAvgPool2d(output_size=1)
            (conv_du): Sequential(
              (0): Conv2d(32, 2, kernel_size=(1, 1), stride=(1, 1))
              (1): ReLU(inplace=True)
              (2): Conv2d(2, 32, kernel_size=(1, 1), stride=(1, 1))
              (3): Sigmoid()
            )
          )
        )
      )
      (10): RCAB(
        (body): Sequential(
          (0): Conv2d(32, 32, kernel_size=(3, 3), stride=(1, 1), padding=(1, 1))
          (1): ReLU(inplace=True)
          (2): Conv2d(32, 32, kernel_size=(3, 3), stride=(1, 1), padding=(1, 1))
          (3): CALayer(
            (avg_pool): AdaptiveAvgPool2d(output_size=1)
            (conv_du): Sequential(
              (0): Conv2d(32, 2, kernel_size=(1, 1), stride=(1, 1))
              (1): ReLU(inplace=True)
              (2): Conv2d(2, 32, kernel_size=(1, 1), stride=(1, 1))
              (3): Sigmoid()
            )
          )
        )
      )
      (11): RCAB(
        (body): Sequential(
          (0): Conv2d(32, 32, kernel_size=(3, 3), stride=(1, 1), padding=(1, 1))
          (1): ReLU(inplace=True)
          (2): Conv2d(32, 32, kernel_size=(3, 3), stride=(1, 1), padding=(1, 1))
          (3): CALayer(
            (avg_pool): AdaptiveAvgPool2d(output_size=1)
            (conv_du): Sequential(
              (0): Conv2d(32, 2, kernel_size=(1, 1), stride=(1, 1))
              (1): ReLU(inplace=True)
              (2): Conv2d(2, 32, kernel_size=(1, 1), stride=(1, 1))
              (3): Sigmoid()
            )
          )
        )
      )
      (12): RCAB(
        (body): Sequential(
          (0): Conv2d(32, 32, kernel_size=(3, 3), stride=(1, 1), padding=(1, 1))
          (1): ReLU(inplace=True)
          (2): Conv2d(32, 32, kernel_size=(3, 3), stride=(1, 1), padding=(1, 1))
          (3): CALayer(
            (avg_pool): AdaptiveAvgPool2d(output_size=1)
            (conv_du): Sequential(
              (0): Conv2d(32, 2, kernel_size=(1, 1), stride=(1, 1))
              (1): ReLU(inplace=True)
              (2): Conv2d(2, 32, kernel_size=(1, 1), stride=(1, 1))
              (3): Sigmoid()
            )
          )
        )
      )
      (13): RCAB(
        (body): Sequential(
          (0): Conv2d(32, 32, kernel_size=(3, 3), stride=(1, 1), padding=(1, 1))
          (1): ReLU(inplace=True)
          (2): Conv2d(32, 32, kernel_size=(3, 3), stride=(1, 1), padding=(1, 1))
          (3): CALayer(
            (avg_pool): AdaptiveAvgPool2d(output_size=1)
            (conv_du): Sequential(
              (0): Conv2d(32, 2, kernel_size=(1, 1), stride=(1, 1))
              (1): ReLU(inplace=True)
              (2): Conv2d(2, 32, kernel_size=(1, 1), stride=(1, 1))
              (3): Sigmoid()
            )
          )
        )
      )
      (14): RCAB(
        (body): Sequential(
          (0): Conv2d(32, 32, kernel_size=(3, 3), stride=(1, 1), padding=(1, 1))
          (1): ReLU(inplace=True)
          (2): Conv2d(32, 32, kernel_size=(3, 3), stride=(1, 1), padding=(1, 1))
          (3): CALayer(
            (avg_pool): AdaptiveAvgPool2d(output_size=1)
            (conv_du): Sequential(
              (0): Conv2d(32, 2, kernel_size=(1, 1), stride=(1, 1))
              (1): ReLU(inplace=True)
              (2): Conv2d(2, 32, kernel_size=(1, 1), stride=(1, 1))
              (3): Sigmoid()
            )
          )
        )
      )
      (15): RCAB(
        (body): Sequential(
          (0): Conv2d(32, 32, kernel_size=(3, 3), stride=(1, 1), padding=(1, 1))
          (1): ReLU(inplace=True)
          (2): Conv2d(32, 32, kernel_size=(3, 3), stride=(1, 1), padding=(1, 1))
          (3): CALayer(
            (avg_pool): AdaptiveAvgPool2d(output_size=1)
            (conv_du): Sequential(
              (0): Conv2d(32, 2, kernel_size=(1, 1), stride=(1, 1))
              (1): ReLU(inplace=True)
              (2): Conv2d(2, 32, kernel_size=(1, 1), stride=(1, 1))
              (3): Sigmoid()
            )
          )
        )
      )
      (16): RCAB(
        (body): Sequential(
          (0): Conv2d(32, 32, kernel_size=(3, 3), stride=(1, 1), padding=(1, 1))
          (1): ReLU(inplace=True)
          (2): Conv2d(32, 32, kernel_size=(3, 3), stride=(1, 1), padding=(1, 1))
          (3): CALayer(
            (avg_pool): AdaptiveAvgPool2d(output_size=1)
            (conv_du): Sequential(
              (0): Conv2d(32, 2, kernel_size=(1, 1), stride=(1, 1))
              (1): ReLU(inplace=True)
              (2): Conv2d(2, 32, kernel_size=(1, 1), stride=(1, 1))
              (3): Sigmoid()
            )
          )
        )
      )
      (17): RCAB(
        (body): Sequential(
          (0): Conv2d(32, 32, kernel_size=(3, 3), stride=(1, 1), padding=(1, 1))
          (1): ReLU(inplace=True)
          (2): Conv2d(32, 32, kernel_size=(3, 3), stride=(1, 1), padding=(1, 1))
          (3): CALayer(
            (avg_pool): AdaptiveAvgPool2d(output_size=1)
            (conv_du): Sequential(
              (0): Conv2d(32, 2, kernel_size=(1, 1), stride=(1, 1))
              (1): ReLU(inplace=True)
              (2): Conv2d(2, 32, kernel_size=(1, 1), stride=(1, 1))
              (3): Sigmoid()
            )
          )
        )
      )
      (18): RCAB(
        (body): Sequential(
          (0): Conv2d(32, 32, kernel_size=(3, 3), stride=(1, 1), padding=(1, 1))
          (1): ReLU(inplace=True)
          (2): Conv2d(32, 32, kernel_size=(3, 3), stride=(1, 1), padding=(1, 1))
          (3): CALayer(
            (avg_pool): AdaptiveAvgPool2d(output_size=1)
            (conv_du): Sequential(
              (0): Conv2d(32, 2, kernel_size=(1, 1), stride=(1, 1))
              (1): ReLU(inplace=True)
              (2): Conv2d(2, 32, kernel_size=(1, 1), stride=(1, 1))
              (3): Sigmoid()
            )
          )
        )
      )
      (19): RCAB(
        (body): Sequential(
          (0): Conv2d(32, 32, kernel_size=(3, 3), stride=(1, 1), padding=(1, 1))
          (1): ReLU(inplace=True)
          (2): Conv2d(32, 32, kernel_size=(3, 3), stride=(1, 1), padding=(1, 1))
          (3): CALayer(
            (avg_pool): AdaptiveAvgPool2d(output_size=1)
            (conv_du): Sequential(
              (0): Conv2d(32, 2, kernel_size=(1, 1), stride=(1, 1))
              (1): ReLU(inplace=True)
              (2): Conv2d(2, 32, kernel_size=(1, 1), stride=(1, 1))
              (3): Sigmoid()
            )
          )
        )
      )
      (20): RCAB(
        (body): Sequential(
          (0): Conv2d(32, 32, kernel_size=(3, 3), stride=(1, 1), padding=(1, 1))
          (1): ReLU(inplace=True)
          (2): Conv2d(32, 32, kernel_size=(3, 3), stride=(1, 1), padding=(1, 1))
          (3): CALayer(
            (avg_pool): AdaptiveAvgPool2d(output_size=1)
            (conv_du): Sequential(
              (0): Conv2d(32, 2, kernel_size=(1, 1), stride=(1, 1))
              (1): ReLU(inplace=True)
              (2): Conv2d(2, 32, kernel_size=(1, 1), stride=(1, 1))
              (3): Sigmoid()
            )
          )
        )
      )
      (21): RCAB(
        (body): Sequential(
          (0): Conv2d(32, 32, kernel_size=(3, 3), stride=(1, 1), padding=(1, 1))
          (1): ReLU(inplace=True)
          (2): Conv2d(32, 32, kernel_size=(3, 3), stride=(1, 1), padding=(1, 1))
          (3): CALayer(
            (avg_pool): AdaptiveAvgPool2d(output_size=1)
            (conv_du): Sequential(
              (0): Conv2d(32, 2, kernel_size=(1, 1), stride=(1, 1))
              (1): ReLU(inplace=True)
              (2): Conv2d(2, 32, kernel_size=(1, 1), stride=(1, 1))
              (3): Sigmoid()
            )
          )
        )
      )
      (22): RCAB(
        (body): Sequential(
          (0): Conv2d(32, 32, kernel_size=(3, 3), stride=(1, 1), padding=(1, 1))
          (1): ReLU(inplace=True)
          (2): Conv2d(32, 32, kernel_size=(3, 3), stride=(1, 1), padding=(1, 1))
          (3): CALayer(
            (avg_pool): AdaptiveAvgPool2d(output_size=1)
            (conv_du): Sequential(
              (0): Conv2d(32, 2, kernel_size=(1, 1), stride=(1, 1))
              (1): ReLU(inplace=True)
              (2): Conv2d(2, 32, kernel_size=(1, 1), stride=(1, 1))
              (3): Sigmoid()
            )
          )
        )
      )
      (23): RCAB(
        (body): Sequential(
          (0): Conv2d(32, 32, kernel_size=(3, 3), stride=(1, 1), padding=(1, 1))
          (1): ReLU(inplace=True)
          (2): Conv2d(32, 32, kernel_size=(3, 3), stride=(1, 1), padding=(1, 1))
          (3): CALayer(
            (avg_pool): AdaptiveAvgPool2d(output_size=1)
            (conv_du): Sequential(
              (0): Conv2d(32, 2, kernel_size=(1, 1), stride=(1, 1))
              (1): ReLU(inplace=True)
              (2): Conv2d(2, 32, kernel_size=(1, 1), stride=(1, 1))
              (3): Sigmoid()
            )
          )
        )
      )
      (24): RCAB(
        (body): Sequential(
          (0): Conv2d(32, 32, kernel_size=(3, 3), stride=(1, 1), padding=(1, 1))
          (1): ReLU(inplace=True)
          (2): Conv2d(32, 32, kernel_size=(3, 3), stride=(1, 1), padding=(1, 1))
          (3): CALayer(
            (avg_pool): AdaptiveAvgPool2d(output_size=1)
            (conv_du): Sequential(
              (0): Conv2d(32, 2, kernel_size=(1, 1), stride=(1, 1))
              (1): ReLU(inplace=True)
              (2): Conv2d(2, 32, kernel_size=(1, 1), stride=(1, 1))
              (3): Sigmoid()
            )
          )
        )
      )
      (25): RCAB(
        (body): Sequential(
          (0): Conv2d(32, 32, kernel_size=(3, 3), stride=(1, 1), padding=(1, 1))
          (1): ReLU(inplace=True)
          (2): Conv2d(32, 32, kernel_size=(3, 3), stride=(1, 1), padding=(1, 1))
          (3): CALayer(
            (avg_pool): AdaptiveAvgPool2d(output_size=1)
            (conv_du): Sequential(
              (0): Conv2d(32, 2, kernel_size=(1, 1), stride=(1, 1))
              (1): ReLU(inplace=True)
              (2): Conv2d(2, 32, kernel_size=(1, 1), stride=(1, 1))
              (3): Sigmoid()
            )
          )
        )
      )
      (26): RCAB(
        (body): Sequential(
          (0): Conv2d(32, 32, kernel_size=(3, 3), stride=(1, 1), padding=(1, 1))
          (1): ReLU(inplace=True)
          (2): Conv2d(32, 32, kernel_size=(3, 3), stride=(1, 1), padding=(1, 1))
          (3): CALayer(
            (avg_pool): AdaptiveAvgPool2d(output_size=1)
            (conv_du): Sequential(
              (0): Conv2d(32, 2, kernel_size=(1, 1), stride=(1, 1))
              (1): ReLU(inplace=True)
              (2): Conv2d(2, 32, kernel_size=(1, 1), stride=(1, 1))
              (3): Sigmoid()
            )
          )
        )
      )
      (27): RCAB(
        (body): Sequential(
          (0): Conv2d(32, 32, kernel_size=(3, 3), stride=(1, 1), padding=(1, 1))
          (1): ReLU(inplace=True)
          (2): Conv2d(32, 32, kernel_size=(3, 3), stride=(1, 1), padding=(1, 1))
          (3): CALayer(
            (avg_pool): AdaptiveAvgPool2d(output_size=1)
            (conv_du): Sequential(
              (0): Conv2d(32, 2, kernel_size=(1, 1), stride=(1, 1))
              (1): ReLU(inplace=True)
              (2): Conv2d(2, 32, kernel_size=(1, 1), stride=(1, 1))
              (3): Sigmoid()
            )
          )
        )
      )
      (28): RCAB(
        (body): Sequential(
          (0): Conv2d(32, 32, kernel_size=(3, 3), stride=(1, 1), padding=(1, 1))
          (1): ReLU(inplace=True)
          (2): Conv2d(32, 32, kernel_size=(3, 3), stride=(1, 1), padding=(1, 1))
          (3): CALayer(
            (avg_pool): AdaptiveAvgPool2d(output_size=1)
            (conv_du): Sequential(
              (0): Conv2d(32, 2, kernel_size=(1, 1), stride=(1, 1))
              (1): ReLU(inplace=True)
              (2): Conv2d(2, 32, kernel_size=(1, 1), stride=(1, 1))
              (3): Sigmoid()
            )
          )
        )
      )
      (29): RCAB(
        (body): Sequential(
          (0): Conv2d(32, 32, kernel_size=(3, 3), stride=(1, 1), padding=(1, 1))
          (1): ReLU(inplace=True)
          (2): Conv2d(32, 32, kernel_size=(3, 3), stride=(1, 1), padding=(1, 1))
          (3): CALayer(
            (avg_pool): AdaptiveAvgPool2d(output_size=1)
            (conv_du): Sequential(
              (0): Conv2d(32, 2, kernel_size=(1, 1), stride=(1, 1))
              (1): ReLU(inplace=True)
              (2): Conv2d(2, 32, kernel_size=(1, 1), stride=(1, 1))
              (3): Sigmoid()
            )
          )
        )
      )
      (30): RCAB(
        (body): Sequential(
          (0): Conv2d(32, 32, kernel_size=(3, 3), stride=(1, 1), padding=(1, 1))
          (1): ReLU(inplace=True)
          (2): Conv2d(32, 32, kernel_size=(3, 3), stride=(1, 1), padding=(1, 1))
          (3): CALayer(
            (avg_pool): AdaptiveAvgPool2d(output_size=1)
            (conv_du): Sequential(
              (0): Conv2d(32, 2, kernel_size=(1, 1), stride=(1, 1))
              (1): ReLU(inplace=True)
              (2): Conv2d(2, 32, kernel_size=(1, 1), stride=(1, 1))
              (3): Sigmoid()
            )
          )
        )
      )
      (31): RCAB(
        (body): Sequential(
          (0): Conv2d(32, 32, kernel_size=(3, 3), stride=(1, 1), padding=(1, 1))
          (1): ReLU(inplace=True)
          (2): Conv2d(32, 32, kernel_size=(3, 3), stride=(1, 1), padding=(1, 1))
          (3): CALayer(
            (avg_pool): AdaptiveAvgPool2d(output_size=1)
            (conv_du): Sequential(
              (0): Conv2d(32, 2, kernel_size=(1, 1), stride=(1, 1))
              (1): ReLU(inplace=True)
              (2): Conv2d(2, 32, kernel_size=(1, 1), stride=(1, 1))
              (3): Sigmoid()
            )
          )
        )
      )
      (32): RCAB(
        (body): Sequential(
          (0): Conv2d(32, 32, kernel_size=(3, 3), stride=(1, 1), padding=(1, 1))
          (1): ReLU(inplace=True)
          (2): Conv2d(32, 32, kernel_size=(3, 3), stride=(1, 1), padding=(1, 1))
          (3): CALayer(
            (avg_pool): AdaptiveAvgPool2d(output_size=1)
            (conv_du): Sequential(
              (0): Conv2d(32, 2, kernel_size=(1, 1), stride=(1, 1))
              (1): ReLU(inplace=True)
              (2): Conv2d(2, 32, kernel_size=(1, 1), stride=(1, 1))
              (3): Sigmoid()
            )
          )
        )
      )
      (33): RCAB(
        (body): Sequential(
          (0): Conv2d(32, 32, kernel_size=(3, 3), stride=(1, 1), padding=(1, 1))
          (1): ReLU(inplace=True)
          (2): Conv2d(32, 32, kernel_size=(3, 3), stride=(1, 1), padding=(1, 1))
          (3): CALayer(
            (avg_pool): AdaptiveAvgPool2d(output_size=1)
            (conv_du): Sequential(
              (0): Conv2d(32, 2, kernel_size=(1, 1), stride=(1, 1))
              (1): ReLU(inplace=True)
              (2): Conv2d(2, 32, kernel_size=(1, 1), stride=(1, 1))
              (3): Sigmoid()
            )
          )
        )
      )
      (34): RCAB(
        (body): Sequential(
          (0): Conv2d(32, 32, kernel_size=(3, 3), stride=(1, 1), padding=(1, 1))
          (1): ReLU(inplace=True)
…
      (0): Conv2d(512, 512, kernel_size=(4, 4), stride=(2, 2), padding=(1, 1), bias=False)
      (1): InstanceNorm2d(512, eps=1e-05, momentum=0.1, affine=False, track_running_stats=False)
      (2): LeakyReLU(negative_slope=0.2)
      (3): Dropout(p=0.5, inplace=False)
    )
  )
  (down7): UNetDown(
    (model): Sequential(
      (0): Conv2d(512, 512, kernel_size=(4, 4), stride=(2, 2), padding=(1, 1), bias=False)
      (1): InstanceNorm2d(512, eps=1e-05, momentum=0.1, affine=False, track_running_stats=False)
      (2): LeakyReLU(negative_slope=0.2)
      (3): Dropout(p=0.5, inplace=False)
    )
  )
  (down8): UNetDown(
    (model): Sequential(
      (0): Conv2d(512, 512, kernel_size=(4, 4), stride=(2, 2), padding=(1, 1), bias=False)
      (1): LeakyReLU(negative_slope=0.2)
      (2): Dropout(p=0.5, inplace=False)
    )
  )
  (up1): UNetUp(
    (model): Sequential(
      (0): ConvTranspose2d(512, 512, kernel_size=(4, 4), stride=(2, 2), padding=(1, 1), bias=False)
      (1): InstanceNorm2d(512, eps=1e-05, momentum=0.1, affine=False, track_running_stats=False)
      (2): ReLU(inplace=True)
      (3): Dropout(p=0.5, inplace=False)
    )
  )
  (up2): UNetUp(
    (model): Sequential(
      (0): ConvTranspose2d(1024, 512, kernel_size=(4, 4), stride=(2, 2), padding=(1, 1), bias=False)
      (1): InstanceNorm2d(512, eps=1e-05, momentum=0.1, affine=False, track_running_stats=False)
      (2): ReLU(inplace=True)
      (3): Dropout(p=0.5, inplace=False)
    )
  )
  (up3): UNetUp(
    (model): Sequential(
      (0): ConvTranspose2d(1024, 512, kernel_size=(4, 4), stride=(2, 2), padding=(1, 1), bias=False)
      (1): InstanceNorm2d(512, eps=1e-05, momentum=0.1, affine=False, track_running_stats=False)
      (2): ReLU(inplace=True)
      (3): Dropout(p=0.5, inplace=False)
    )
  )
  (up4): UNetUp(
    (model): Sequential(
      (0): ConvTranspose2d(1024, 512, kernel_size=(4, 4), stride=(2, 2), padding=(1, 1), bias=False)
      (1): InstanceNorm2d(512, eps=1e-05, momentum=0.1, affine=False, track_running_stats=False)
      (2): ReLU(inplace=True)
      (3): Dropout(p=0.5, inplace=False)
    )
  )
  (up5): UNetUp(
    (model): Sequential(
      (0): ConvTranspose2d(1024, 256, kernel_size=(4, 4), stride=(2, 2), padding=(1, 1), bias=False)
      (1): InstanceNorm2d(256, eps=1e-05, momentum=0.1, affine=False, track_running_stats=False)
      (2): ReLU(inplace=True)
    )
  )
  (up6): UNetUp(
    (model): Sequential(
      (0): ConvTranspose2d(512, 128, kernel_size=(4, 4), stride=(2, 2), padding=(1, 1), bias=False)
      (1): InstanceNorm2d(128, eps=1e-05, momentum=0.1, affine=False, track_running_stats=False)
      (2): ReLU(inplace=True)
    )
  )
  (up7): UNetUp(
    (model): Sequential(
      (0): ConvTranspose2d(256, 64, kernel_size=(4, 4), stride=(2, 2), padding=(1, 1), bias=False)
      (1): InstanceNorm2d(64, eps=1e-05, momentum=0.1, affine=False, track_running_stats=False)
      (2): ReLU(inplace=True)
    )
  )
  (final): Sequential(
    (0): Upsample(scale_factor=2.0, mode=nearest)
    (1): ZeroPad2d(padding=(1, 0, 1, 0), value=0.0)
    (2): Conv2d(128, 3, kernel_size=(4, 4), stride=(1, 1), padding=(1, 1))
    (3): Tanh()
  )
)
[Epoch 1]	Learning rate: 1.00e-4
Glow_Encoder_Decoder(
  (down1): UNetDown(
    (model): Sequential(
      (0): Conv2d(3, 64, kernel_size=(4, 4), stride=(2, 2), padding=(1, 1), bias=False)
      (1): LeakyReLU(negative_slope=0.2)
    )
  )
  (down2): UNetDown(
    (model): Sequential(
      (0): Conv2d(64, 128, kernel_size=(4, 4), stride=(2, 2), padding=(1, 1), bias=False)
      (1): InstanceNorm2d(128, eps=1e-05, momentum=0.1, affine=False, track_running_stats=False)
      (2): LeakyReLU(negative_slope=0.2)
    )
  )
  (down3): UNetDown(
    (model): Sequential(
      (0): Conv2d(128, 256, kernel_size=(4, 4), stride=(2, 2), padding=(1, 1), bias=False)
      (1): InstanceNorm2d(256, eps=1e-05, momentum=0.1, affine=False, track_running_stats=False)
      (2): LeakyReLU(negative_slope=0.2)
    )
  )
  (down4): UNetDown(
    (model): Sequential(
      (0): Conv2d(256, 512, kernel_size=(4, 4), stride=(2, 2), padding=(1, 1), bias=False)
      (1): InstanceNorm2d(512, eps=1e-05, momentum=0.1, affine=False, track_running_stats=False)
      (2): LeakyReLU(negative_slope=0.2)
      (3): Dropout(p=0.5, inplace=False)
    )
  )
  (down5): UNetDown(
    (model): Sequential(
      (0): Conv2d(512, 512, kernel_size=(4, 4), stride=(2, 2), padding=(1, 1), bias=False)
      (1): InstanceNorm2d(512, eps=1e-05, momentum=0.1, affine=False, track_running_stats=False)
      (2): LeakyReLU(negative_slope=0.2)
      (3): Dropout(p=0.5, inplace=False)
    )
  )
  (down6): UNetDown(
    (model): Sequential(
      (0): Conv2d(512, 512, kernel_size=(4, 4), stride=(2, 2), padding=(1, 1), bias=False)
      (1): InstanceNorm2d(512, eps=1e-05, momentum=0.1, affine=False, track_running_stats=False)
      (2): LeakyReLU(negative_slope=0.2)
      (3): Dropout(p=0.5, inplace=False)
    )
  )
  (down7): UNetDown(
    (model): Sequential(
      (0): Conv2d(512, 512, kernel_size=(4, 4), stride=(2, 2), padding=(1, 1), bias=False)
      (1): InstanceNorm2d(512, eps=1e-05, momentum=0.1, affine=False, track_running_stats=False)
      (2): LeakyReLU(negative_slope=0.2)
      (3): Dropout(p=0.5, inplace=False)
    )
  )
  (down8): UNetDown(
    (model): Sequential(
      (0): Conv2d(512, 512, kernel_size=(4, 4), stride=(2, 2), padding=(1, 1), bias=False)
      (1): LeakyReLU(negative_slope=0.2)
      (2): Dropout(p=0.5, inplace=False)
    )
  )
  (up1): UNetUp(
    (model): Sequential(
      (0): ConvTranspose2d(512, 512, kernel_size=(4, 4), stride=(2, 2), padding=(1, 1), bias=False)
      (1): InstanceNorm2d(512, eps=1e-05, momentum=0.1, affine=False, track_running_stats=False)
      (2): ReLU(inplace=True)
      (3): Dropout(p=0.5, inplace=False)
    )
  )
  (up2): UNetUp(
    (model): Sequential(
      (0): ConvTranspose2d(1024, 512, kernel_size=(4, 4), stride=(2, 2), padding=(1, 1), bias=False)
      (1): InstanceNorm2d(512, eps=1e-05, momentum=0.1, affine=False, track_running_stats=False)
      (2): ReLU(inplace=True)
      (3): Dropout(p=0.5, inplace=False)
    )
  )
  (up3): UNetUp(
    (model): Sequential(
      (0): ConvTranspose2d(1024, 512, kernel_size=(4, 4), stride=(2, 2), padding=(1, 1), bias=False)
      (1): InstanceNorm2d(512, eps=1e-05, momentum=0.1, affine=False, track_running_stats=False)
      (2): ReLU(inplace=True)
      (3): Dropout(p=0.5, inplace=False)
    )
  )
  (up4): UNetUp(
    (model): Sequential(
      (0): ConvTranspose2d(1024, 512, kernel_size=(4, 4), stride=(2, 2), padding=(1, 1), bias=False)
      (1): InstanceNorm2d(512, eps=1e-05, momentum=0.1, affine=False, track_running_stats=False)
      (2): ReLU(inplace=True)
      (3): Dropout(p=0.5, inplace=False)
    )
  )
  (up5): UNetUp(
    (model): Sequential(
      (0): ConvTranspose2d(1024, 256, kernel_size=(4, 4), stride=(2, 2), padding=(1, 1), bias=False)
      (1): InstanceNorm2d(256, eps=1e-05, momentum=0.1, affine=False, track_running_stats=False)
      (2): ReLU(inplace=True)
    )
  )
  (up6): UNetUp(
    (model): Sequential(
      (0): ConvTranspose2d(512, 128, kernel_size=(4, 4), stride=(2, 2), padding=(1, 1), bias=False)
      (1): InstanceNorm2d(128, eps=1e-05, momentum=0.1, affine=False, track_running_stats=False)
      (2): ReLU(inplace=True)
    )
  )
  (up7): UNetUp(
    (model): Sequential(
      (0): ConvTranspose2d(256, 64, kernel_size=(4, 4), stride=(2, 2), padding=(1, 1), bias=False)
      (1): InstanceNorm2d(64, eps=1e-05, momentum=0.1, affine=False, track_running_stats=False)
      (2): ReLU(inplace=True)
    )
  )
  (final): Sequential(
    (0): Upsample(scale_factor=2.0, mode=nearest)
    (1): ZeroPad2d(padding=(1, 0, 1, 0), value=0.0)
    (2): Conv2d(128, 3, kernel_size=(4, 4), stride=(1, 1), padding=(1, 1))
    (3): Tanh()
  )
)
[Epoch 1]	Learning rate: 1.00e-4
Glow_Encoder_Decoder(
  (down1): UNetDown(
    (model): Sequential(
      (0): Conv2d(3, 64, kernel_size=(4, 4), stride=(2, 2), padding=(1, 1), bias=False)
      (1): LeakyReLU(negative_slope=0.2)
    )
  )
  (down2): UNetDown(
    (model): Sequential(
      (0): Conv2d(64, 128, kernel_size=(4, 4), stride=(2, 2), padding=(1, 1), bias=False)
      (1): InstanceNorm2d(128, eps=1e-05, momentum=0.1, affine=False, track_running_stats=False)
      (2): LeakyReLU(negative_slope=0.2)
    )
  )
  (down3): UNetDown(
    (model): Sequential(
      (0): Conv2d(128, 256, kernel_size=(4, 4), stride=(2, 2), padding=(1, 1), bias=False)
      (1): InstanceNorm2d(256, eps=1e-05, momentum=0.1, affine=False, track_running_stats=False)
      (2): LeakyReLU(negative_slope=0.2)
    )
  )
  (down4): UNetDown(
    (model): Sequential(
      (0): Conv2d(256, 512, kernel_size=(4, 4), stride=(2, 2), padding=(1, 1), bias=False)
      (1): InstanceNorm2d(512, eps=1e-05, momentum=0.1, affine=False, track_running_stats=False)
      (2): LeakyReLU(negative_slope=0.2)
      (3): Dropout(p=0.5, inplace=False)
    )
  )
  (down5): UNetDown(
    (model): Sequential(
      (0): Conv2d(512, 512, kernel_size=(4, 4), stride=(2, 2), padding=(1, 1), bias=False)
      (1): InstanceNorm2d(512, eps=1e-05, momentum=0.1, affine=False, track_running_stats=False)
      (2): LeakyReLU(negative_slope=0.2)
      (3): Dropout(p=0.5, inplace=False)
    )
  )
  (down6): UNetDown(
    (model): Sequential(
      (0): Conv2d(512, 512, kernel_size=(4, 4), stride=(2, 2), padding=(1, 1), bias=False)
      (1): InstanceNorm2d(512, eps=1e-05, momentum=0.1, affine=False, track_running_stats=False)
      (2): LeakyReLU(negative_slope=0.2)
      (3): Dropout(p=0.5, inplace=False)
    )
  )
  (down7): UNetDown(
    (model): Sequential(
      (0): Conv2d(512, 512, kernel_size=(4, 4), stride=(2, 2), padding=(1, 1), bias=False)
      (1): InstanceNorm2d(512, eps=1e-05, momentum=0.1, affine=False, track_running_stats=False)
      (2): LeakyReLU(negative_slope=0.2)
      (3): Dropout(p=0.5, inplace=False)
    )
  )
  (down8): UNetDown(
    (model): Sequential(
      (0): Conv2d(512, 512, kernel_size=(4, 4), stride=(2, 2), padding=(1, 1), bias=False)
      (1): LeakyReLU(negative_slope=0.2)
      (2): Dropout(p=0.5, inplace=False)
    )
  )
  (up1): UNetUp(
    (model): Sequential(
      (0): ConvTranspose2d(512, 512, kernel_size=(4, 4), stride=(2, 2), padding=(1, 1), bias=False)
      (1): InstanceNorm2d(512, eps=1e-05, momentum=0.1, affine=False, track_running_stats=False)
      (2): ReLU(inplace=True)
      (3): Dropout(p=0.5, inplace=False)
    )
  )
  (up2): UNetUp(
    (model): Sequential(
      (0): ConvTranspose2d(1024, 512, kernel_size=(4, 4), stride=(2, 2), padding=(1, 1), bias=False)
      (1): InstanceNorm2d(512, eps=1e-05, momentum=0.1, affine=False, track_running_stats=False)
      (2): ReLU(inplace=True)
      (3): Dropout(p=0.5, inplace=False)
    )
  )
  (up3): UNetUp(
    (model): Sequential(
      (0): ConvTranspose2d(1024, 512, kernel_size=(4, 4), stride=(2, 2), padding=(1, 1), bias=False)
      (1): InstanceNorm2d(512, eps=1e-05, momentum=0.1, affine=False, track_running_stats=False)
      (2): ReLU(inplace=True)
      (3): Dropout(p=0.5, inplace=False)
    )
  )
  (up4): UNetUp(
    (model): Sequential(
      (0): ConvTranspose2d(1024, 512, kernel_size=(4, 4), stride=(2, 2), padding=(1, 1), bias=False)
      (1): InstanceNorm2d(512, eps=1e-05, momentum=0.1, affine=False, track_running_stats=False)
      (2): ReLU(inplace=True)
      (3): Dropout(p=0.5, inplace=False)
    )
  )
  (up5): UNetUp(
    (model): Sequential(
      (0): ConvTranspose2d(1024, 256, kernel_size=(4, 4), stride=(2, 2), padding=(1, 1), bias=False)
      (1): InstanceNorm2d(256, eps=1e-05, momentum=0.1, affine=False, track_running_stats=False)
      (2): ReLU(inplace=True)
    )
  )
  (up6): UNetUp(
    (model): Sequential(
      (0): ConvTranspose2d(512, 128, kernel_size=(4, 4), stride=(2, 2), padding=(1, 1), bias=False)
      (1): InstanceNorm2d(128, eps=1e-05, momentum=0.1, affine=False, track_running_stats=False)
      (2): ReLU(inplace=True)
    )
  )
  (up7): UNetUp(
    (model): Sequential(
      (0): ConvTranspose2d(256, 64, kernel_size=(4, 4), stride=(2, 2), padding=(1, 1), bias=False)
      (1): InstanceNorm2d(64, eps=1e-05, momentum=0.1, affine=False, track_running_stats=False)
      (2): ReLU(inplace=True)
    )
  )
  (final): Sequential(
    (0): Upsample(scale_factor=2.0, mode=nearest)
    (1): ZeroPad2d(padding=(1, 0, 1, 0), value=0.0)
    (2): Conv2d(128, 3, kernel_size=(4, 4), stride=(1, 1), padding=(1, 1))
    (3): Tanh()
  )
)
[Epoch 1]	Learning rate: 1.00e-4
Glow_Encoder_Decoder(
  (down1): UNetDown(
    (model): Sequential(
      (0): Conv2d(3, 64, kernel_size=(4, 4), stride=(2, 2), padding=(1, 1), bias=False)
      (1): LeakyReLU(negative_slope=0.2)
    )
  )
  (down2): UNetDown(
    (model): Sequential(
      (0): Conv2d(64, 128, kernel_size=(4, 4), stride=(2, 2), padding=(1, 1), bias=False)
      (1): InstanceNorm2d(128, eps=1e-05, momentum=0.1, affine=False, track_running_stats=False)
      (2): LeakyReLU(negative_slope=0.2)
    )
  )
  (down3): UNetDown(
    (model): Sequential(
      (0): Conv2d(128, 256, kernel_size=(4, 4), stride=(2, 2), padding=(1, 1), bias=False)
      (1): InstanceNorm2d(256, eps=1e-05, momentum=0.1, affine=False, track_running_stats=False)
      (2): LeakyReLU(negative_slope=0.2)
    )
  )
  (down4): UNetDown(
    (model): Sequential(
      (0): Conv2d(256, 512, kernel_size=(4, 4), stride=(2, 2), padding=(1, 1), bias=False)
      (1): InstanceNorm2d(512, eps=1e-05, momentum=0.1, affine=False, track_running_stats=False)
      (2): LeakyReLU(negative_slope=0.2)
      (3): Dropout(p=0.5, inplace=False)
    )
  )
  (down5): UNetDown(
    (model): Sequential(
      (0): Conv2d(512, 512, kernel_size=(4, 4), stride=(2, 2), padding=(1, 1), bias=False)
      (1): InstanceNorm2d(512, eps=1e-05, momentum=0.1, affine=False, track_running_stats=False)
      (2): LeakyReLU(negative_slope=0.2)
      (3): Dropout(p=0.5, inplace=False)
    )
  )
  (down6): UNetDown(
    (model): Sequential(
      (0): Conv2d(512, 512, kernel_size=(4, 4), stride=(2, 2), padding=(1, 1), bias=False)
      (1): InstanceNorm2d(512, eps=1e-05, momentum=0.1, affine=False, track_running_stats=False)
      (2): LeakyReLU(negative_slope=0.2)
      (3): Dropout(p=0.5, inplace=False)
    )
  )
  (down7): UNetDown(
    (model): Sequential(
      (0): Conv2d(512, 512, kernel_size=(4, 4), stride=(2, 2), padding=(1, 1), bias=False)
      (1): InstanceNorm2d(512, eps=1e-05, momentum=0.1, affine=False, track_running_stats=False)
      (2): LeakyReLU(negative_slope=0.2)
      (3): Dropout(p=0.5, inplace=False)
    )
  )
  (down8): UNetDown(
    (model): Sequential(
      (0): Conv2d(512, 512, kernel_size=(4, 4), stride=(2, 2), padding=(1, 1), bias=False)
      (1): LeakyReLU(negative_slope=0.2)
      (2): Dropout(p=0.5, inplace=False)
    )
  )
  (up1): UNetUp(
    (model): Sequential(
      (0): ConvTranspose2d(512, 512, kernel_size=(4, 4), stride=(2, 2), padding=(1, 1), bias=False)
      (1): InstanceNorm2d(512, eps=1e-05, momentum=0.1, affine=False, track_running_stats=False)
      (2): ReLU(inplace=True)
      (3): Dropout(p=0.5, inplace=False)
    )
  )
  (up2): UNetUp(
    (model): Sequential(
      (0): ConvTranspose2d(1024, 512, kernel_size=(4, 4), stride=(2, 2), padding=(1, 1), bias=False)
      (1): InstanceNorm2d(512, eps=1e-05, momentum=0.1, affine=False, track_running_stats=False)
      (2): ReLU(inplace=True)
      (3): Dropout(p=0.5, inplace=False)
    )
  )
  (up3): UNetUp(
    (model): Sequential(
      (0): ConvTranspose2d(1024, 512, kernel_size=(4, 4), stride=(2, 2), padding=(1, 1), bias=False)
      (1): InstanceNorm2d(512, eps=1e-05, momentum=0.1, affine=False, track_running_stats=False)
      (2): ReLU(inplace=True)
      (3): Dropout(p=0.5, inplace=False)
    )
  )
  (up4): UNetUp(
    (model): Sequential(
      (0): ConvTranspose2d(1024, 512, kernel_size=(4, 4), stride=(2, 2), padding=(1, 1), bias=False)
      (1): InstanceNorm2d(512, eps=1e-05, momentum=0.1, affine=False, track_running_stats=False)
      (2): ReLU(inplace=True)
      (3): Dropout(p=0.5, inplace=False)
    )
  )
  (up5): UNetUp(
    (model): Sequential(
      (0): ConvTranspose2d(1024, 256, kernel_size=(4, 4), stride=(2, 2), padding=(1, 1), bias=False)
      (1): InstanceNorm2d(256, eps=1e-05, momentum=0.1, affine=False, track_running_stats=False)
      (2): ReLU(inplace=True)
    )
  )
  (up6): UNetUp(
    (model): Sequential(
      (0): ConvTranspose2d(512, 128, kernel_size=(4, 4), stride=(2, 2), padding=(1, 1), bias=False)
      (1): InstanceNorm2d(128, eps=1e-05, momentum=0.1, affine=False, track_running_stats=False)
      (2): ReLU(inplace=True)
    )
  )
  (up7): UNetUp(
    (model): Sequential(
      (0): ConvTranspose2d(256, 64, kernel_size=(4, 4), stride=(2, 2), padding=(1, 1), bias=False)
      (1): InstanceNorm2d(64, eps=1e-05, momentum=0.1, affine=False, track_running_stats=False)
      (2): ReLU(inplace=True)
    )
  )
  (final): Sequential(
    (0): Upsample(scale_factor=2.0, mode=nearest)
    (1): ZeroPad2d(padding=(1, 0, 1, 0), value=0.0)
    (2): Conv2d(128, 3, kernel_size=(4, 4), stride=(1, 1), padding=(1, 1))
    (3): Tanh()
  )
)
[Epoch 1]	Learning rate: 1.00e-4
Glow_Encoder_Decoder(
  (down1): UNetDown(
    (model): Sequential(
      (0): Conv2d(3, 64, kernel_size=(4, 4), stride=(2, 2), padding=(1, 1), bias=False)
      (1): LeakyReLU(negative_slope=0.2)
    )
  )
  (down2): UNetDown(
    (model): Sequential(
      (0): Conv2d(64, 128, kernel_size=(4, 4), stride=(2, 2), padding=(1, 1), bias=False)
      (1): InstanceNorm2d(128, eps=1e-05, momentum=0.1, affine=False, track_running_stats=False)
      (2): LeakyReLU(negative_slope=0.2)
    )
  )
  (down3): UNetDown(
    (model): Sequential(
      (0): Conv2d(128, 256, kernel_size=(4, 4), stride=(2, 2), padding=(1, 1), bias=False)
      (1): InstanceNorm2d(256, eps=1e-05, momentum=0.1, affine=False, track_running_stats=False)
      (2): LeakyReLU(negative_slope=0.2)
    )
  )
  (down4): UNetDown(
    (model): Sequential(
      (0): Conv2d(256, 512, kernel_size=(4, 4), stride=(2, 2), padding=(1, 1), bias=False)
      (1): InstanceNorm2d(512, eps=1e-05, momentum=0.1, affine=False, track_running_stats=False)
      (2): LeakyReLU(negative_slope=0.2)
      (3): Dropout(p=0.5, inplace=False)
    )
  )
  (down5): UNetDown(
    (model): Sequential(
      (0): Conv2d(512, 512, kernel_size=(4, 4), stride=(2, 2), padding=(1, 1), bias=False)
      (1): InstanceNorm2d(512, eps=1e-05, momentum=0.1, affine=False, track_running_stats=False)
      (2): LeakyReLU(negative_slope=0.2)
      (3): Dropout(p=0.5, inplace=False)
    )
  )
  (down6): UNetDown(
    (model): Sequential(
      (0): Conv2d(512, 512, kernel_size=(4, 4), stride=(2, 2), padding=(1, 1), bias=False)
      (1): InstanceNorm2d(512, eps=1e-05, momentum=0.1, affine=False, track_running_stats=False)
      (2): LeakyReLU(negative_slope=0.2)
      (3): Dropout(p=0.5, inplace=False)
    )
  )
  (down7): UNetDown(
    (model): Sequential(
      (0): Conv2d(512, 512, kernel_size=(4, 4), stride=(2, 2), padding=(1, 1), bias=False)
      (1): InstanceNorm2d(512, eps=1e-05, momentum=0.1, affine=False, track_running_stats=False)
      (2): LeakyReLU(negative_slope=0.2)
      (3): Dropout(p=0.5, inplace=False)
    )
  )
  (down8): UNetDown(
    (model): Sequential(
      (0): Conv2d(512, 512, kernel_size=(4, 4), stride=(2, 2), padding=(1, 1), bias=False)
      (1): LeakyReLU(negative_slope=0.2)
      (2): Dropout(p=0.5, inplace=False)
    )
  )
  (up1): UNetUp(
    (model): Sequential(
      (0): ConvTranspose2d(512, 512, kernel_size=(4, 4), stride=(2, 2), padding=(1, 1), bias=False)
      (1): InstanceNorm2d(512, eps=1e-05, momentum=0.1, affine=False, track_running_stats=False)
      (2): ReLU(inplace=True)
      (3): Dropout(p=0.5, inplace=False)
    )
  )
  (up2): UNetUp(
    (model): Sequential(
      (0): ConvTranspose2d(1024, 512, kernel_size=(4, 4), stride=(2, 2), padding=(1, 1), bias=False)
      (1): InstanceNorm2d(512, eps=1e-05, momentum=0.1, affine=False, track_running_stats=False)
      (2): ReLU(inplace=True)
      (3): Dropout(p=0.5, inplace=False)
    )
  )
  (up3): UNetUp(
    (model): Sequential(
      (0): ConvTranspose2d(1024, 512, kernel_size=(4, 4), stride=(2, 2), padding=(1, 1), bias=False)
      (1): InstanceNorm2d(512, eps=1e-05, momentum=0.1, affine=False, track_running_stats=False)
      (2): ReLU(inplace=True)
      (3): Dropout(p=0.5, inplace=False)
    )
  )
  (up4): UNetUp(
    (model): Sequential(
      (0): ConvTranspose2d(1024, 512, kernel_size=(4, 4), stride=(2, 2), padding=(1, 1), bias=False)
      (1): InstanceNorm2d(512, eps=1e-05, momentum=0.1, affine=False, track_running_stats=False)
      (2): ReLU(inplace=True)
      (3): Dropout(p=0.5, inplace=False)
    )
  )
  (up5): UNetUp(
    (model): Sequential(
      (0): ConvTranspose2d(1024, 256, kernel_size=(4, 4), stride=(2, 2), padding=(1, 1), bias=False)
      (1): InstanceNorm2d(256, eps=1e-05, momentum=0.1, affine=False, track_running_stats=False)
      (2): ReLU(inplace=True)
    )
  )
  (up6): UNetUp(
    (model): Sequential(
      (0): ConvTranspose2d(512, 128, kernel_size=(4, 4), stride=(2, 2), padding=(1, 1), bias=False)
      (1): InstanceNorm2d(128, eps=1e-05, momentum=0.1, affine=False, track_running_stats=False)
      (2): ReLU(inplace=True)
    )
  )
  (up7): UNetUp(
    (model): Sequential(
      (0): ConvTranspose2d(256, 64, kernel_size=(4, 4), stride=(2, 2), padding=(1, 1), bias=False)
      (1): InstanceNorm2d(64, eps=1e-05, momentum=0.1, affine=False, track_running_stats=False)
      (2): ReLU(inplace=True)
    )
  )
  (final): Sequential(
    (0): Upsample(scale_factor=2.0, mode=nearest)
    (1): ZeroPad2d(padding=(1, 0, 1, 0), value=0.0)
    (2): Conv2d(128, 3, kernel_size=(4, 4), stride=(1, 1), padding=(1, 1))
    (3): Tanh()
  )
)
[Epoch 1]	Learning rate: 1.00e-4
Glow_Encoder_Decoder(
  (down1): UNetDown(
    (model): Sequential(
      (0): Conv2d(3, 64, kernel_size=(4, 4), stride=(2, 2), padding=(1, 1), bias=False)
      (1): LeakyReLU(negative_slope=0.2)
    )
  )
  (down2): UNetDown(
    (model): Sequential(
      (0): Conv2d(64, 128, kernel_size=(4, 4), stride=(2, 2), padding=(1, 1), bias=False)
      (1): InstanceNorm2d(128, eps=1e-05, momentum=0.1, affine=False, track_running_stats=False)
      (2): LeakyReLU(negative_slope=0.2)
    )
  )
  (down3): UNetDown(
    (model): Sequential(
      (0): Conv2d(128, 256, kernel_size=(4, 4), stride=(2, 2), padding=(1, 1), bias=False)
      (1): InstanceNorm2d(256, eps=1e-05, momentum=0.1, affine=False, track_running_stats=False)
      (2): LeakyReLU(negative_slope=0.2)
    )
  )
  (down4): UNetDown(
    (model): Sequential(
      (0): Conv2d(256, 512, kernel_size=(4, 4), stride=(2, 2), padding=(1, 1), bias=False)
      (1): InstanceNorm2d(512, eps=1e-05, momentum=0.1, affine=False, track_running_stats=False)
      (2): LeakyReLU(negative_slope=0.2)
      (3): Dropout(p=0.5, inplace=False)
    )
  )
  (down5): UNetDown(
    (model): Sequential(
      (0): Conv2d(512, 512, kernel_size=(4, 4), stride=(2, 2), padding=(1, 1), bias=False)
      (1): InstanceNorm2d(512, eps=1e-05, momentum=0.1, affine=False, track_running_stats=False)
      (2): LeakyReLU(negative_slope=0.2)
      (3): Dropout(p=0.5, inplace=False)
    )
  )
  (down6): UNetDown(
    (model): Sequential(
      (0): Conv2d(512, 512, kernel_size=(4, 4), stride=(2, 2), padding=(1, 1), bias=False)
      (1): InstanceNorm2d(512, eps=1e-05, momentum=0.1, affine=False, track_running_stats=False)
      (2): LeakyReLU(negative_slope=0.2)
      (3): Dropout(p=0.5, inplace=False)
    )
  )
  (down7): UNetDown(
    (model): Sequential(
      (0): Conv2d(512, 512, kernel_size=(4, 4), stride=(2, 2), padding=(1, 1), bias=False)
      (1): InstanceNorm2d(512, eps=1e-05, momentum=0.1, affine=False, track_running_stats=False)
      (2): LeakyReLU(negative_slope=0.2)
      (3): Dropout(p=0.5, inplace=False)
    )
  )
  (down8): UNetDown(
    (model): Sequential(
      (0): Conv2d(512, 512, kernel_size=(4, 4), stride=(2, 2), padding=(1, 1), bias=False)
      (1): LeakyReLU(negative_slope=0.2)
      (2): Dropout(p=0.5, inplace=False)
    )
  )
  (up1): UNetUp(
    (model): Sequential(
      (0): ConvTranspose2d(512, 512, kernel_size=(4, 4), stride=(2, 2), padding=(1, 1), bias=False)
      (1): InstanceNorm2d(512, eps=1e-05, momentum=0.1, affine=False, track_running_stats=False)
      (2): ReLU(inplace=True)
      (3): Dropout(p=0.5, inplace=False)
    )
  )
  (up2): UNetUp(
    (model): Sequential(
      (0): ConvTranspose2d(1024, 512, kernel_size=(4, 4), stride=(2, 2), padding=(1, 1), bias=False)
      (1): InstanceNorm2d(512, eps=1e-05, momentum=0.1, affine=False, track_running_stats=False)
      (2): ReLU(inplace=True)
      (3): Dropout(p=0.5, inplace=False)
    )
  )
  (up3): UNetUp(
    (model): Sequential(
      (0): ConvTranspose2d(1024, 512, kernel_size=(4, 4), stride=(2, 2), padding=(1, 1), bias=False)
      (1): InstanceNorm2d(512, eps=1e-05, momentum=0.1, affine=False, track_running_stats=False)
      (2): ReLU(inplace=True)
      (3): Dropout(p=0.5, inplace=False)
    )
  )
  (up4): UNetUp(
    (model): Sequential(
      (0): ConvTranspose2d(1024, 512, kernel_size=(4, 4), stride=(2, 2), padding=(1, 1), bias=False)
      (1): InstanceNorm2d(512, eps=1e-05, momentum=0.1, affine=False, track_running_stats=False)
      (2): ReLU(inplace=True)
      (3): Dropout(p=0.5, inplace=False)
    )
  )
  (up5): UNetUp(
    (model): Sequential(
      (0): ConvTranspose2d(1024, 256, kernel_size=(4, 4), stride=(2, 2), padding=(1, 1), bias=False)
      (1): InstanceNorm2d(256, eps=1e-05, momentum=0.1, affine=False, track_running_stats=False)
      (2): ReLU(inplace=True)
    )
  )
  (up6): UNetUp(
    (model): Sequential(
      (0): ConvTranspose2d(512, 128, kernel_size=(4, 4), stride=(2, 2), padding=(1, 1), bias=False)
      (1): InstanceNorm2d(128, eps=1e-05, momentum=0.1, affine=False, track_running_stats=False)
      (2): ReLU(inplace=True)
    )
  )
  (up7): UNetUp(
    (model): Sequential(
      (0): ConvTranspose2d(256, 64, kernel_size=(4, 4), stride=(2, 2), padding=(1, 1), bias=False)
      (1): InstanceNorm2d(64, eps=1e-05, momentum=0.1, affine=False, track_running_stats=False)
      (2): ReLU(inplace=True)
    )
  )
  (final): Sequential(
    (0): Upsample(scale_factor=2.0, mode=nearest)
    (1): ZeroPad2d(padding=(1, 0, 1, 0), value=0.0)
    (2): Conv2d(128, 3, kernel_size=(4, 4), stride=(1, 1), padding=(1, 1))
    (3): Tanh()
  )
)
[Epoch 1]	Learning rate: 1.00e-4
Glow_Encoder_Decoder(
  (down1): UNetDown(
    (model): Sequential(
      (0): Conv2d(3, 64, kernel_size=(4, 4), stride=(2, 2), padding=(1, 1), bias=False)
      (1): LeakyReLU(negative_slope=0.2)
    )
  )
  (down2): UNetDown(
    (model): Sequential(
      (0): Conv2d(64, 128, kernel_size=(4, 4), stride=(2, 2), padding=(1, 1), bias=False)
      (1): InstanceNorm2d(128, eps=1e-05, momentum=0.1, affine=False, track_running_stats=False)
      (2): LeakyReLU(negative_slope=0.2)
    )
  )
  (down3): UNetDown(
    (model): Sequential(
      (0): Conv2d(128, 256, kernel_size=(4, 4), stride=(2, 2), padding=(1, 1), bias=False)
      (1): InstanceNorm2d(256, eps=1e-05, momentum=0.1, affine=False, track_running_stats=False)
      (2): LeakyReLU(negative_slope=0.2)
    )
  )
  (down4): UNetDown(
    (model): Sequential(
      (0): Conv2d(256, 512, kernel_size=(4, 4), stride=(2, 2), padding=(1, 1), bias=False)
      (1): InstanceNorm2d(512, eps=1e-05, momentum=0.1, affine=False, track_running_stats=False)
      (2): LeakyReLU(negative_slope=0.2)
      (3): Dropout(p=0.5, inplace=False)
    )
  )
  (down5): UNetDown(
    (model): Sequential(
      (0): Conv2d(512, 512, kernel_size=(4, 4), stride=(2, 2), padding=(1, 1), bias=False)
      (1): InstanceNorm2d(512, eps=1e-05, momentum=0.1, affine=False, track_running_stats=False)
      (2): LeakyReLU(negative_slope=0.2)
      (3): Dropout(p=0.5, inplace=False)
    )
  )
  (down6): UNetDown(
    (model): Sequential(
      (0): Conv2d(512, 512, kernel_size=(4, 4), stride=(2, 2), padding=(1, 1), bias=False)
      (1): InstanceNorm2d(512, eps=1e-05, momentum=0.1, affine=False, track_running_stats=False)
      (2): LeakyReLU(negative_slope=0.2)
      (3): Dropout(p=0.5, inplace=False)
    )
  )
  (down7): UNetDown(
    (model): Sequential(
      (0): Conv2d(512, 512, kernel_size=(4, 4), stride=(2, 2), padding=(1, 1), bias=False)
      (1): InstanceNorm2d(512, eps=1e-05, momentum=0.1, affine=False, track_running_stats=False)
      (2): LeakyReLU(negative_slope=0.2)
      (3): Dropout(p=0.5, inplace=False)
    )
  )
  (down8): UNetDown(
    (model): Sequential(
      (0): Conv2d(512, 512, kernel_size=(4, 4), stride=(2, 2), padding=(1, 1), bias=False)
      (1): LeakyReLU(negative_slope=0.2)
      (2): Dropout(p=0.5, inplace=False)
    )
  )
  (up1): UNetUp(
    (model): Sequential(
      (0): ConvTranspose2d(512, 512, kernel_size=(4, 4), stride=(2, 2), padding=(1, 1), bias=False)
      (1): InstanceNorm2d(512, eps=1e-05, momentum=0.1, affine=False, track_running_stats=False)
      (2): ReLU(inplace=True)
      (3): Dropout(p=0.5, inplace=False)
    )
  )
  (up2): UNetUp(
    (model): Sequential(
      (0): ConvTranspose2d(1024, 512, kernel_size=(4, 4), stride=(2, 2), padding=(1, 1), bias=False)
      (1): InstanceNorm2d(512, eps=1e-05, momentum=0.1, affine=False, track_running_stats=False)
      (2): ReLU(inplace=True)
      (3): Dropout(p=0.5, inplace=False)
    )
  )
  (up3): UNetUp(
    (model): Sequential(
      (0): ConvTranspose2d(1024, 512, kernel_size=(4, 4), stride=(2, 2), padding=(1, 1), bias=False)
      (1): InstanceNorm2d(512, eps=1e-05, momentum=0.1, affine=False, track_running_stats=False)
      (2): ReLU(inplace=True)
      (3): Dropout(p=0.5, inplace=False)
    )
  )
  (up4): UNetUp(
    (model): Sequential(
      (0): ConvTranspose2d(1024, 512, kernel_size=(4, 4), stride=(2, 2), padding=(1, 1), bias=False)
      (1): InstanceNorm2d(512, eps=1e-05, momentum=0.1, affine=False, track_running_stats=False)
      (2): ReLU(inplace=True)
      (3): Dropout(p=0.5, inplace=False)
    )
  )
  (up5): UNetUp(
    (model): Sequential(
      (0): ConvTranspose2d(1024, 256, kernel_size=(4, 4), stride=(2, 2), padding=(1, 1), bias=False)
      (1): InstanceNorm2d(256, eps=1e-05, momentum=0.1, affine=False, track_running_stats=False)
      (2): ReLU(inplace=True)
    )
  )
  (up6): UNetUp(
    (model): Sequential(
      (0): ConvTranspose2d(512, 128, kernel_size=(4, 4), stride=(2, 2), padding=(1, 1), bias=False)
      (1): InstanceNorm2d(128, eps=1e-05, momentum=0.1, affine=False, track_running_stats=False)
      (2): ReLU(inplace=True)
    )
  )
  (up7): UNetUp(
    (model): Sequential(
      (0): ConvTranspose2d(256, 64, kernel_size=(4, 4), stride=(2, 2), padding=(1, 1), bias=False)
      (1): InstanceNorm2d(64, eps=1e-05, momentum=0.1, affine=False, track_running_stats=False)
      (2): ReLU(inplace=True)
    )
  )
  (final): Sequential(
    (0): Upsample(scale_factor=2.0, mode=nearest)
    (1): ZeroPad2d(padding=(1, 0, 1, 0), value=0.0)
    (2): Conv2d(128, 3, kernel_size=(4, 4), stride=(1, 1), padding=(1, 1))
    (3): Tanh()
  )
)
[Epoch 1]	Learning rate: 1.00e-4
Glow_Encoder_Decoder(
  (down1): UNetDown(
    (model): Sequential(
      (0): Conv2d(3, 64, kernel_size=(4, 4), stride=(2, 2), padding=(1, 1), bias=False)
      (1): LeakyReLU(negative_slope=0.2)
    )
  )
  (down2): UNetDown(
    (model): Sequential(
      (0): Conv2d(64, 128, kernel_size=(4, 4), stride=(2, 2), padding=(1, 1), bias=False)
      (1): InstanceNorm2d(128, eps=1e-05, momentum=0.1, affine=False, track_running_stats=False)
      (2): LeakyReLU(negative_slope=0.2)
    )
  )
  (down3): UNetDown(
    (model): Sequential(
      (0): Conv2d(128, 256, kernel_size=(4, 4), stride=(2, 2), padding=(1, 1), bias=False)
      (1): InstanceNorm2d(256, eps=1e-05, momentum=0.1, affine=False, track_running_stats=False)
      (2): LeakyReLU(negative_slope=0.2)
    )
  )
  (down4): UNetDown(
    (model): Sequential(
      (0): Conv2d(256, 512, kernel_size=(4, 4), stride=(2, 2), padding=(1, 1), bias=False)
      (1): InstanceNorm2d(512, eps=1e-05, momentum=0.1, affine=False, track_running_stats=False)
      (2): LeakyReLU(negative_slope=0.2)
      (3): Dropout(p=0.5, inplace=False)
    )
  )
  (down5): UNetDown(
    (model): Sequential(
      (0): Conv2d(512, 512, kernel_size=(4, 4), stride=(2, 2), padding=(1, 1), bias=False)
      (1): InstanceNorm2d(512, eps=1e-05, momentum=0.1, affine=False, track_running_stats=False)
      (2): LeakyReLU(negative_slope=0.2)
      (3): Dropout(p=0.5, inplace=False)
    )
  )
  (down6): UNetDown(
    (model): Sequential(
      (0): Conv2d(512, 512, kernel_size=(4, 4), stride=(2, 2), padding=(1, 1), bias=False)
      (1): InstanceNorm2d(512, eps=1e-05, momentum=0.1, affine=False, track_running_stats=False)
      (2): LeakyReLU(negative_slope=0.2)
      (3): Dropout(p=0.5, inplace=False)
    )
  )
  (down7): UNetDown(
    (model): Sequential(
      (0): Conv2d(512, 512, kernel_size=(4, 4), stride=(2, 2), padding=(1, 1), bias=False)
      (1): InstanceNorm2d(512, eps=1e-05, momentum=0.1, affine=False, track_running_stats=False)
      (2): LeakyReLU(negative_slope=0.2)
      (3): Dropout(p=0.5, inplace=False)
    )
  )
  (down8): UNetDown(
    (model): Sequential(
      (0): Conv2d(512, 512, kernel_size=(4, 4), stride=(2, 2), padding=(1, 1), bias=False)
      (1): LeakyReLU(negative_slope=0.2)
      (2): Dropout(p=0.5, inplace=False)
    )
  )
  (up1): UNetUp(
    (model): Sequential(
      (0): ConvTranspose2d(512, 512, kernel_size=(4, 4), stride=(2, 2), padding=(1, 1), bias=False)
      (1): InstanceNorm2d(512, eps=1e-05, momentum=0.1, affine=False, track_running_stats=False)
      (2): ReLU(inplace=True)
      (3): Dropout(p=0.5, inplace=False)
    )
  )
  (up2): UNetUp(
    (model): Sequential(
      (0): ConvTranspose2d(1024, 512, kernel_size=(4, 4), stride=(2, 2), padding=(1, 1), bias=False)
      (1): InstanceNorm2d(512, eps=1e-05, momentum=0.1, affine=False, track_running_stats=False)
      (2): ReLU(inplace=True)
      (3): Dropout(p=0.5, inplace=False)
    )
  )
  (up3): UNetUp(
    (model): Sequential(
      (0): ConvTranspose2d(1024, 512, kernel_size=(4, 4), stride=(2, 2), padding=(1, 1), bias=False)
      (1): InstanceNorm2d(512, eps=1e-05, momentum=0.1, affine=False, track_running_stats=False)
      (2): ReLU(inplace=True)
      (3): Dropout(p=0.5, inplace=False)
    )
  )
  (up4): UNetUp(
    (model): Sequential(
      (0): ConvTranspose2d(1024, 512, kernel_size=(4, 4), stride=(2, 2), padding=(1, 1), bias=False)
      (1): InstanceNorm2d(512, eps=1e-05, momentum=0.1, affine=False, track_running_stats=False)
      (2): ReLU(inplace=True)
      (3): Dropout(p=0.5, inplace=False)
    )
  )
  (up5): UNetUp(
    (model): Sequential(
      (0): ConvTranspose2d(1024, 256, kernel_size=(4, 4), stride=(2, 2), padding=(1, 1), bias=False)
      (1): InstanceNorm2d(256, eps=1e-05, momentum=0.1, affine=False, track_running_stats=False)
      (2): ReLU(inplace=True)
    )
  )
  (up6): UNetUp(
    (model): Sequential(
      (0): ConvTranspose2d(512, 128, kernel_size=(4, 4), stride=(2, 2), padding=(1, 1), bias=False)
      (1): InstanceNorm2d(128, eps=1e-05, momentum=0.1, affine=False, track_running_stats=False)
      (2): ReLU(inplace=True)
    )
  )
  (up7): UNetUp(
    (model): Sequential(
      (0): ConvTranspose2d(256, 64, kernel_size=(4, 4), stride=(2, 2), padding=(1, 1), bias=False)
      (1): InstanceNorm2d(64, eps=1e-05, momentum=0.1, affine=False, track_running_stats=False)
      (2): ReLU(inplace=True)
    )
  )
  (final): Sequential(
    (0): Upsample(scale_factor=2.0, mode=nearest)
    (1): ZeroPad2d(padding=(1, 0, 1, 0), value=0.0)
    (2): Conv2d(128, 3, kernel_size=(4, 4), stride=(1, 1), padding=(1, 1))
    (3): Tanh()
  )
)
[Epoch 1]	Learning rate: 1.00e-4
Glow_Encoder_Decoder(
  (down1): UNetDown(
    (model): Sequential(
      (0): Conv2d(3, 64, kernel_size=(4, 4), stride=(2, 2), padding=(1, 1), bias=False)
      (1): LeakyReLU(negative_slope=0.2)
    )
  )
  (down2): UNetDown(
    (model): Sequential(
      (0): Conv2d(64, 128, kernel_size=(4, 4), stride=(2, 2), padding=(1, 1), bias=False)
      (1): InstanceNorm2d(128, eps=1e-05, momentum=0.1, affine=False, track_running_stats=False)
      (2): LeakyReLU(negative_slope=0.2)
    )
  )
  (down3): UNetDown(
    (model): Sequential(
      (0): Conv2d(128, 256, kernel_size=(4, 4), stride=(2, 2), padding=(1, 1), bias=False)
      (1): InstanceNorm2d(256, eps=1e-05, momentum=0.1, affine=False, track_running_stats=False)
      (2): LeakyReLU(negative_slope=0.2)
    )
  )
  (down4): UNetDown(
    (model): Sequential(
      (0): Conv2d(256, 512, kernel_size=(4, 4), stride=(2, 2), padding=(1, 1), bias=False)
      (1): InstanceNorm2d(512, eps=1e-05, momentum=0.1, affine=False, track_running_stats=False)
      (2): LeakyReLU(negative_slope=0.2)
      (3): Dropout(p=0.5, inplace=False)
    )
  )
  (down5): UNetDown(
    (model): Sequential(
      (0): Conv2d(512, 512, kernel_size=(4, 4), stride=(2, 2), padding=(1, 1), bias=False)
      (1): InstanceNorm2d(512, eps=1e-05, momentum=0.1, affine=False, track_running_stats=False)
      (2): LeakyReLU(negative_slope=0.2)
      (3): Dropout(p=0.5, inplace=False)
    )
  )
  (down6): UNetDown(
    (model): Sequential(
      (0): Conv2d(512, 512, kernel_size=(4, 4), stride=(2, 2), padding=(1, 1), bias=False)
      (1): InstanceNorm2d(512, eps=1e-05, momentum=0.1, affine=False, track_running_stats=False)
      (2): LeakyReLU(negative_slope=0.2)
      (3): Dropout(p=0.5, inplace=False)
    )
  )
  (down7): UNetDown(
    (model): Sequential(
      (0): Conv2d(512, 512, kernel_size=(4, 4), stride=(2, 2), padding=(1, 1), bias=False)
      (1): InstanceNorm2d(512, eps=1e-05, momentum=0.1, affine=False, track_running_stats=False)
      (2): LeakyReLU(negative_slope=0.2)
      (3): Dropout(p=0.5, inplace=False)
    )
  )
  (down8): UNetDown(
    (model): Sequential(
      (0): Conv2d(512, 512, kernel_size=(4, 4), stride=(2, 2), padding=(1, 1), bias=False)
      (1): LeakyReLU(negative_slope=0.2)
      (2): Dropout(p=0.5, inplace=False)
    )
  )
  (up1): UNetUp(
    (model): Sequential(
      (0): ConvTranspose2d(512, 512, kernel_size=(4, 4), stride=(2, 2), padding=(1, 1), bias=False)
      (1): InstanceNorm2d(512, eps=1e-05, momentum=0.1, affine=False, track_running_stats=False)
      (2): ReLU(inplace=True)
      (3): Dropout(p=0.5, inplace=False)
    )
  )
  (up2): UNetUp(
    (model): Sequential(
      (0): ConvTranspose2d(1024, 512, kernel_size=(4, 4), stride=(2, 2), padding=(1, 1), bias=False)
      (1): InstanceNorm2d(512, eps=1e-05, momentum=0.1, affine=False, track_running_stats=False)
      (2): ReLU(inplace=True)
      (3): Dropout(p=0.5, inplace=False)
    )
  )
  (up3): UNetUp(
    (model): Sequential(
      (0): ConvTranspose2d(1024, 512, kernel_size=(4, 4), stride=(2, 2), padding=(1, 1), bias=False)
      (1): InstanceNorm2d(512, eps=1e-05, momentum=0.1, affine=False, track_running_stats=False)
      (2): ReLU(inplace=True)
      (3): Dropout(p=0.5, inplace=False)
    )
  )
  (up4): UNetUp(
    (model): Sequential(
      (0): ConvTranspose2d(1024, 512, kernel_size=(4, 4), stride=(2, 2), padding=(1, 1), bias=False)
      (1): InstanceNorm2d(512, eps=1e-05, momentum=0.1, affine=False, track_running_stats=False)
      (2): ReLU(inplace=True)
      (3): Dropout(p=0.5, inplace=False)
    )
  )
  (up5): UNetUp(
    (model): Sequential(
      (0): ConvTranspose2d(1024, 256, kernel_size=(4, 4), stride=(2, 2), padding=(1, 1), bias=False)
      (1): InstanceNorm2d(256, eps=1e-05, momentum=0.1, affine=False, track_running_stats=False)
      (2): ReLU(inplace=True)
    )
  )
  (up6): UNetUp(
    (model): Sequential(
      (0): ConvTranspose2d(512, 128, kernel_size=(4, 4), stride=(2, 2), padding=(1, 1), bias=False)
      (1): InstanceNorm2d(128, eps=1e-05, momentum=0.1, affine=False, track_running_stats=False)
      (2): ReLU(inplace=True)
    )
  )
  (up7): UNetUp(
    (model): Sequential(
      (0): ConvTranspose2d(256, 64, kernel_size=(4, 4), stride=(2, 2), padding=(1, 1), bias=False)
      (1): InstanceNorm2d(64, eps=1e-05, momentum=0.1, affine=False, track_running_stats=False)
      (2): ReLU(inplace=True)
    )
  )
  (final): Sequential(
    (0): Upsample(scale_factor=2.0, mode=nearest)
    (1): ZeroPad2d(padding=(1, 0, 1, 0), value=0.0)
    (2): Conv2d(128, 3, kernel_size=(4, 4), stride=(1, 1), padding=(1, 1))
    (3): Tanh()
  )
)
[Epoch 1]	Learning rate: 1.00e-4
Glow_Encoder_Decoder(
  (down1): UNetDown(
    (model): Sequential(
      (0): Conv2d(3, 64, kernel_size=(4, 4), stride=(2, 2), padding=(1, 1), bias=False)
      (1): LeakyReLU(negative_slope=0.2)
    )
  )
  (down2): UNetDown(
    (model): Sequential(
      (0): Conv2d(64, 128, kernel_size=(4, 4), stride=(2, 2), padding=(1, 1), bias=False)
      (1): InstanceNorm2d(128, eps=1e-05, momentum=0.1, affine=False, track_running_stats=False)
      (2): LeakyReLU(negative_slope=0.2)
    )
  )
  (down3): UNetDown(
    (model): Sequential(
      (0): Conv2d(128, 256, kernel_size=(4, 4), stride=(2, 2), padding=(1, 1), bias=False)
      (1): InstanceNorm2d(256, eps=1e-05, momentum=0.1, affine=False, track_running_stats=False)
      (2): LeakyReLU(negative_slope=0.2)
    )
  )
  (down4): UNetDown(
    (model): Sequential(
      (0): Conv2d(256, 512, kernel_size=(4, 4), stride=(2, 2), padding=(1, 1), bias=False)
      (1): InstanceNorm2d(512, eps=1e-05, momentum=0.1, affine=False, track_running_stats=False)
      (2): LeakyReLU(negative_slope=0.2)
      (3): Dropout(p=0.5, inplace=False)
    )
  )
  (down5): UNetDown(
    (model): Sequential(
      (0): Conv2d(512, 512, kernel_size=(4, 4), stride=(2, 2), padding=(1, 1), bias=False)
      (1): InstanceNorm2d(512, eps=1e-05, momentum=0.1, affine=False, track_running_stats=False)
      (2): LeakyReLU(negative_slope=0.2)
      (3): Dropout(p=0.5, inplace=False)
    )
  )
  (down6): UNetDown(
    (model): Sequential(
      (0): Conv2d(512, 512, kernel_size=(4, 4), stride=(2, 2), padding=(1, 1), bias=False)
      (1): InstanceNorm2d(512, eps=1e-05, momentum=0.1, affine=False, track_running_stats=False)
      (2): LeakyReLU(negative_slope=0.2)
      (3): Dropout(p=0.5, inplace=False)
    )
  )
  (down7): UNetDown(
    (model): Sequential(
      (0): Conv2d(512, 512, kernel_size=(4, 4), stride=(2, 2), padding=(1, 1), bias=False)
      (1): InstanceNorm2d(512, eps=1e-05, momentum=0.1, affine=False, track_running_stats=False)
      (2): LeakyReLU(negative_slope=0.2)
      (3): Dropout(p=0.5, inplace=False)
    )
  )
  (down8): UNetDown(
    (model): Sequential(
      (0): Conv2d(512, 512, kernel_size=(4, 4), stride=(2, 2), padding=(1, 1), bias=False)
      (1): LeakyReLU(negative_slope=0.2)
      (2): Dropout(p=0.5, inplace=False)
    )
  )
  (up1): UNetUp(
    (model): Sequential(
      (0): ConvTranspose2d(512, 512, kernel_size=(4, 4), stride=(2, 2), padding=(1, 1), bias=False)
      (1): InstanceNorm2d(512, eps=1e-05, momentum=0.1, affine=False, track_running_stats=False)
      (2): ReLU(inplace=True)
      (3): Dropout(p=0.5, inplace=False)
    )
  )
  (up2): UNetUp(
    (model): Sequential(
      (0): ConvTranspose2d(1024, 512, kernel_size=(4, 4), stride=(2, 2), padding=(1, 1), bias=False)
      (1): InstanceNorm2d(512, eps=1e-05, momentum=0.1, affine=False, track_running_stats=False)
      (2): ReLU(inplace=True)
      (3): Dropout(p=0.5, inplace=False)
    )
  )
  (up3): UNetUp(
    (model): Sequential(
      (0): ConvTranspose2d(1024, 512, kernel_size=(4, 4), stride=(2, 2), padding=(1, 1), bias=False)
      (1): InstanceNorm2d(512, eps=1e-05, momentum=0.1, affine=False, track_running_stats=False)
      (2): ReLU(inplace=True)
      (3): Dropout(p=0.5, inplace=False)
    )
  )
  (up4): UNetUp(
    (model): Sequential(
      (0): ConvTranspose2d(1024, 512, kernel_size=(4, 4), stride=(2, 2), padding=(1, 1), bias=False)
      (1): InstanceNorm2d(512, eps=1e-05, momentum=0.1, affine=False, track_running_stats=False)
      (2): ReLU(inplace=True)
      (3): Dropout(p=0.5, inplace=False)
    )
  )
  (up5): UNetUp(
    (model): Sequential(
      (0): ConvTranspose2d(1024, 256, kernel_size=(4, 4), stride=(2, 2), padding=(1, 1), bias=False)
      (1): InstanceNorm2d(256, eps=1e-05, momentum=0.1, affine=False, track_running_stats=False)
      (2): ReLU(inplace=True)
    )
  )
  (up6): UNetUp(
    (model): Sequential(
      (0): ConvTranspose2d(512, 128, kernel_size=(4, 4), stride=(2, 2), padding=(1, 1), bias=False)
      (1): InstanceNorm2d(128, eps=1e-05, momentum=0.1, affine=False, track_running_stats=False)
      (2): ReLU(inplace=True)
    )
  )
  (up7): UNetUp(
    (model): Sequential(
      (0): ConvTranspose2d(256, 64, kernel_size=(4, 4), stride=(2, 2), padding=(1, 1), bias=False)
      (1): InstanceNorm2d(64, eps=1e-05, momentum=0.1, affine=False, track_running_stats=False)
      (2): ReLU(inplace=True)
    )
  )
  (final): Sequential(
    (0): Upsample(scale_factor=2.0, mode=nearest)
    (1): ZeroPad2d(padding=(1, 0, 1, 0), value=0.0)
    (2): Conv2d(128, 3, kernel_size=(4, 4), stride=(1, 1), padding=(1, 1))
    (3): Tanh()
  )
)
[Epoch 1]	Learning rate: 1.00e-4
Glow_Encoder_Decoder(
  (down1): UNetDown(
    (model): Sequential(
      (0): Conv2d(3, 64, kernel_size=(4, 4), stride=(2, 2), padding=(1, 1), bias=False)
      (1): LeakyReLU(negative_slope=0.2)
    )
  )
  (down2): UNetDown(
    (model): Sequential(
      (0): Conv2d(64, 128, kernel_size=(4, 4), stride=(2, 2), padding=(1, 1), bias=False)
      (1): InstanceNorm2d(128, eps=1e-05, momentum=0.1, affine=False, track_running_stats=False)
      (2): LeakyReLU(negative_slope=0.2)
    )
  )
  (down3): UNetDown(
    (model): Sequential(
      (0): Conv2d(128, 256, kernel_size=(4, 4), stride=(2, 2), padding=(1, 1), bias=False)
      (1): InstanceNorm2d(256, eps=1e-05, momentum=0.1, affine=False, track_running_stats=False)
      (2): LeakyReLU(negative_slope=0.2)
    )
  )
  (down4): UNetDown(
    (model): Sequential(
      (0): Conv2d(256, 512, kernel_size=(4, 4), stride=(2, 2), padding=(1, 1), bias=False)
      (1): InstanceNorm2d(512, eps=1e-05, momentum=0.1, affine=False, track_running_stats=False)
      (2): LeakyReLU(negative_slope=0.2)
      (3): Dropout(p=0.5, inplace=False)
    )
  )
  (down5): UNetDown(
    (model): Sequential(
      (0): Conv2d(512, 512, kernel_size=(4, 4), stride=(2, 2), padding=(1, 1), bias=False)
      (1): InstanceNorm2d(512, eps=1e-05, momentum=0.1, affine=False, track_running_stats=False)
      (2): LeakyReLU(negative_slope=0.2)
      (3): Dropout(p=0.5, inplace=False)
    )
  )
  (down6): UNetDown(
    (model): Sequential(
      (0): Conv2d(512, 512, kernel_size=(4, 4), stride=(2, 2), padding=(1, 1), bias=False)
      (1): InstanceNorm2d(512, eps=1e-05, momentum=0.1, affine=False, track_running_stats=False)
      (2): LeakyReLU(negative_slope=0.2)
      (3): Dropout(p=0.5, inplace=False)
    )
  )
  (down7): UNetDown(
    (model): Sequential(
      (0): Conv2d(512, 512, kernel_size=(4, 4), stride=(2, 2), padding=(1, 1), bias=False)
      (1): InstanceNorm2d(512, eps=1e-05, momentum=0.1, affine=False, track_running_stats=False)
      (2): LeakyReLU(negative_slope=0.2)
      (3): Dropout(p=0.5, inplace=False)
    )
  )
  (down8): UNetDown(
    (model): Sequential(
      (0): Conv2d(512, 512, kernel_size=(4, 4), stride=(2, 2), padding=(1, 1), bias=False)
      (1): LeakyReLU(negative_slope=0.2)
      (2): Dropout(p=0.5, inplace=False)
    )
  )
  (up1): UNetUp(
    (model): Sequential(
      (0): ConvTranspose2d(512, 512, kernel_size=(4, 4), stride=(2, 2), padding=(1, 1), bias=False)
      (1): InstanceNorm2d(512, eps=1e-05, momentum=0.1, affine=False, track_running_stats=False)
      (2): ReLU(inplace=True)
      (3): Dropout(p=0.5, inplace=False)
    )
  )
  (up2): UNetUp(
    (model): Sequential(
      (0): ConvTranspose2d(1024, 512, kernel_size=(4, 4), stride=(2, 2), padding=(1, 1), bias=False)
      (1): InstanceNorm2d(512, eps=1e-05, momentum=0.1, affine=False, track_running_stats=False)
      (2): ReLU(inplace=True)
      (3): Dropout(p=0.5, inplace=False)
    )
  )
  (up3): UNetUp(
    (model): Sequential(
      (0): ConvTranspose2d(1024, 512, kernel_size=(4, 4), stride=(2, 2), padding=(1, 1), bias=False)
      (1): InstanceNorm2d(512, eps=1e-05, momentum=0.1, affine=False, track_running_stats=False)
      (2): ReLU(inplace=True)
      (3): Dropout(p=0.5, inplace=False)
    )
  )
  (up4): UNetUp(
    (model): Sequential(
      (0): ConvTranspose2d(1024, 512, kernel_size=(4, 4), stride=(2, 2), padding=(1, 1), bias=False)
      (1): InstanceNorm2d(512, eps=1e-05, momentum=0.1, affine=False, track_running_stats=False)
      (2): ReLU(inplace=True)
      (3): Dropout(p=0.5, inplace=False)
    )
  )
  (up5): UNetUp(
    (model): Sequential(
      (0): ConvTranspose2d(1024, 256, kernel_size=(4, 4), stride=(2, 2), padding=(1, 1), bias=False)
      (1): InstanceNorm2d(256, eps=1e-05, momentum=0.1, affine=False, track_running_stats=False)
      (2): ReLU(inplace=True)
    )
  )
  (up6): UNetUp(
    (model): Sequential(
      (0): ConvTranspose2d(512, 128, kernel_size=(4, 4), stride=(2, 2), padding=(1, 1), bias=False)
      (1): InstanceNorm2d(128, eps=1e-05, momentum=0.1, affine=False, track_running_stats=False)
      (2): ReLU(inplace=True)
    )
  )
  (up7): UNetUp(
    (model): Sequential(
      (0): ConvTranspose2d(256, 64, kernel_size=(4, 4), stride=(2, 2), padding=(1, 1), bias=False)
      (1): InstanceNorm2d(64, eps=1e-05, momentum=0.1, affine=False, track_running_stats=False)
      (2): ReLU(inplace=True)
    )
  )
  (final): Sequential(
    (0): Upsample(scale_factor=2.0, mode=nearest)
    (1): ZeroPad2d(padding=(1, 0, 1, 0), value=0.0)
    (2): Conv2d(128, 3, kernel_size=(4, 4), stride=(1, 1), padding=(1, 1))
    (3): Tanh()
  )
)
[Epoch 1]	Learning rate: 1.00e-4
